sac-3-2000.pt (torch, 72071 bytes, 6 tensors)

fc1.0.0.weight f4 [128, 3]
0.013057083 -0.33431792 0.013924995 0.13996609 0.902113 0.5409853 0.6349875 0.91269565
0.3247768 -0.27723894 0.844618 0.20041457 -0.67388874 0.0150208995 0.15906966 -0.81734353
-0.008575465 0.4035201 -0.48384953 0.8957908 0.2623946 0.27723178 -0.76183575 -0.15039213
-0.44380468 0.34520352 0.101485655 0.65161324 0.23886326 -0.28856754 0.5923265 0.77301574
0.39507714 -0.21909821 -0.668171 -0.13315801 0.15696761 0.5531669 0.46144158 -0.40690988
-0.9437706 -0.22036608 -0.85372245 -0.26985618 0.25724503 -0.5438074 0.342188 0.41614702
-0.04937271 0.72503906 0.1401677 0.13593127 -0.6529425 0.2652405 -0.23022142 0.77485585
0.1783773 0.21698394 -0.97652316 -0.2196994 -0.20956117 0.7020104 0.15582919 0.3881816
-0.56216705 -0.16199248 0.27980798 -0.71107286 0.09125624 0.37606582 -0.46805736 0.22820565
0.18507195 0.45354962 0.42559013 0.042114623 0.9059957 0.2609097 -0.060121693 -0.38324425
0.10459285 0.15990067 0.761433 0.19498311 0.6222604 -0.5313476 -0.19555789 -0.5270852
-0.3104676 -0.2126228 0.112726256 -0.43055058 0.28323555 0.10592146 -0.85561657 -0.30721167
0.28820097 -0.9559186 -0.21306989 0.31773973 0.53991693 -0.2508903 -0.51713955 -0.3418733
0.01793141 -0.7106362 -0.17293726 0.40394184 -0.59035856 0.05514801 0.2848046 -0.018987112
0.5256849 -0.078496434 0.12332974 0.006497774 -0.141777 0.080500044 -0.6085858 0.4978849
-0.09885771 0.3936161 -0.084833145 -0.006766953 0.02228018 0.16764145 0.072375834 0.83682036
0.17494696 -0.330965 0.95741403 0.23373157 0.21622813 -0.1856982 0.20904548 -0.012016581
0.88672704 0.2222351 -0.35403168 0.43157232 -0.32539472 -0.36611617 0.084779754 0.458541
-0.67882085 -0.16945013 -0.33076653 -0.62322426 0.27115163 0.37141302 0.50125635 -0.40405706
-0.1546742 -0.10960843 -0.45161754 -0.048653208 -0.52375746 -0.61943644 0.21648723 -0.3845553
0.15910329 0.5339499 0.3473224 -0.44731942 -0.060444612 -0.7363696 -0.013080428 0.30799508
-0.14113946 -0.8236926 -0.14020726 0.5710755 0.7695659 0.5368873 0.26866898 -0.37739697
-0.24177973 0.12055853 -0.45522374 0.42442945 -0.021712301 -0.46419692 -0.3959103 0.09914335
-0.53957206 -0.11490042 -0.7186829 -0.89159054 -0.17201538 -0.3279581 0.6780379 0.55155474
-0.6778558 0.28296462 0.05893733 0.1463118 0.19348374 0.01980709 -0.29240295 -0.057304982
0.3790809 0.35026714 -0.18784642 -0.14230825 -0.18272102 0.57799876 -0.13051945 -0.17004327
1.3661411 0.2497569 0.61722136 0.35780773 0.45086622 -0.09043319 0.12689272 0.03263919
-0.19707009 -0.81127197 -0.14153694 0.21228185 -0.060426272 -0.21603514 -0.7768089 -0.2882024
0.026608607 0.34809473 -0.21264592 -0.26963404 -0.49151677 -0.13366438 -0.17798424 0.27069497
0.11467679 0.20438968 -0.6677003 0.079975225 0.07436396 0.25364408 -0.02909591 -0.16741042
0.45357794 1.0239217 0.58834314 -0.2008045 -0.42800352 0.11300631 -0.076608345 0.99838185
0.28370276 -0.3270773 0.41506484 -0.08271172 0.053268507 0.4330021 -0.25942996 0.63672906
00000000: 60ed 553c b82b abbe aa25 643c 4553 0f3e
00000010: e1f0 663f 037e 0a3f 8a8e 223f 6ca6 693f
00000020: 2549 a63e 43f2 8dbe e338 583f 7a39 4d3e
00000030: f983 2cbf 381a 763c 28e3 223e 6d3d 51bf
00000040: 1b80 0cbc 309a ce3e 20bb f7be 8c52 653f
00000050: 9658 863e 53f1 8d3e ab07 43bf 6500 1abe
00000060: 5e3a e3be 84be b03e b6d7 cf3d 20d0 263f
00000070: 9298 743e 20bf 93be b6a2 173f 5ce4 453f
00000080: 8d47 ca3e 485b 60be 410d 2bbf 935a 08be
00000090: 1ebc 203e 599c 0d3f 1242 ec3e 7e56 d0be
000000a0: f39a 71bf a5a7 61be 8e8d 5abf 972a 8abe
000000b0: 9fb5 833e f636 0bbf 4433 af3e 3911 d53e
000000c0: 0a3b 4abd 299c 393f 1f88 0f3e 9131 0b3e
000000d0: 3d27 27bf 9acd 873e 2abf 6bbe f45c 463f
000000e0: 8aa8 363e 0a31 5e3e 6cfd 79bf e1f8 60be
000000f0: 3497 56be f4b6 333f b091 1f3e bdbf c63e
00000100: 2eea 0fbf 5be1 25be fe42 8f3e df08 36bf
00000110: 8de4 ba3d b38b c03e 37a5 efbe beae 693e
00000120: 8083 3d3e a837 e83e f3e6 d93e 6280 2c3d
00000130: 56ef 673f f595 853e 2a42 76bd 9738 c4be
00000140: c734 d63d 00bd 233e 46ed 423f a7a9 473e
00000150: 754c 1f3f 6506 08bf 5440 48be 0eef 06bf
00000160: 9cf5 9ebe cbb9 59be 06dd e63d 2071 dcbe
00000170: 4004 913e 5aed d83d b009 5bbf d94a 9dbe
00000180: 148f 933e 15b7 74bf fe2e 5abe c8ae a23e
00000190: ff37 0a3f b274 80be 4263 04bf 040a afbe
000001a0: e4e4 923c 41ec 35bf 7716 31be 77d1 ce3e
000001b0: bd21 17bf e1e2 613d e9d1 913e dc8a 9bbc
000001c0: 4993 063f bdc2 a0bd 4d94 fc3d 47eb d43b
000001d0: fd2d 11be 35dd a43d 47cc 1bbf c5ea fe3e
000001e0: e975 cabd 0d88 c93e 00bd adbd 51bd ddbb
000001f0: ed84 b63c 33aa 2b3e c839 943d dc39 563f
00000200: 4c25 333e 3f74 a9be 1619 753f 5457 6f3e
00000210: e86a 5d3e ab27 3ebe 0510 563e 32e1 44bc
00000220: 8b00 633f 9991 633e a443 b5be 0cf7 dc3e
00000230: 239a a6be 9473 bbbe 02a1 ad3d e3c5 ea3e
00000240: 34c7 2dbf 5684 2dbe 3b5a a9be a08b 1fbf
00000250: 63d4 8a3e d929 be3e 5652 003f 91e0 cebe
00000260: ea62 1ebe 627a e0bd 6a3a e7be 9648 47bd
00000270: f814 06bf 6393 1ebf d4ae 5d3e 6fe4 c4be
00000280: f9eb 223e f1b0 083f 3ed4 b13e 0d07 e5be
00000290: c594 77bd b882 3cbf 4b4f 56bc 88b1 9d3e
000002a0: dd86 10be 85dd 52bf 7e92 0fbe 0132 123f
000002b0: 4502 453f 7271 093f fb8e 893e 2d3a c1be
000002c0: 1b95 77be 64e7 f63d 1613 e9be d14e d93e
000002d0: ffdd b1bc 38ab edbe c1b4 cabe ab0b cb3d
000002e0: 6521 0abf e950 ebbd 9afb 37bf 473f 64bf
000002f0: cd24 30be 20ea a7be e493 2d3f b132 0d3f
00000300: f587 2dbf bde0 903e 4568 713d c3d2 153e
00000310: 9a20 463e 7a42 a23c d7b5 95be a1b8 6abd
00000320: e416 c23e 3756 b33e d05a 40be 41b9 11be
00000330: 381b 3bbe baf7 133f e4a6 05be d31f 2ebe
00000340: b6dd ae3f 46c0 7f3e 3802 1e3f 9332 b73e
00000350: f0d7 e63e 0935 b9bd 2af0 013e acb0 053d
00000360: becc 49be 85af 4fbf 0fef 10be 6a60 593e
00000370: 8a81 77bd 5138 5dbe f3dc 46bf 448f 93be
00000380: 4bfa d93c 7939 b23e dabf 59be 790d 8abe
00000390: 16a8 fbbe 51df 08be 8041 36be 8898 8a3e
000003a0: aadb ea3d 874b 513e 68ee 2abf 0dca a33d
000003b0: 224c 983d a3dd 813e 8c5a eebc a36d 2bbe
000003c0: 5e3b e83e de0f 833f a89d 163f b29f 4dbe
000003d0: 4723 dbbe da6f e73d d6e4 9cbd f495 7f3f
000003e0: 7d41 913e ad76 a7be 6183 d43e c364 a9bd
000003f0: 1430 5a3d 74b2 dd3e 01d4 84be ad00 233f

fc1.0.0.bias f4 [128]
-0.08647546 0.37320155 -0.45570788 0.41962796 0.030601168 -0.42944685 0.63751036 0.009530669
0.41037112 -0.59951377 -0.41896296 -0.07997954 -0.00027063274 0.17902564 -0.4926086 -0.3679385
0.18201874 -0.22576272 0.36051098 -0.059249986 0.013196128 -0.20226806 -0.3429491 -0.15800092
0.31664544 0.12025316 0.009194992 -0.20854339 -0.3573633 0.27948177 -0.17753541 -0.43530804
-0.10823579 -0.3403312 0.36306325 0.051940817 -0.34802836 0.02014971 -0.60712945 -0.17088796
-0.19845298 0.019089298 0.1592512 0.064704694 -0.24662545 0.16647588 0.3239734 -0.12156555
0.232707 -0.42603356 -0.29967836 -0.04389007 0.41762477 -0.15556529 0.022086732 -0.4483336
0.3041438 -0.0056965374 0.058232535 -0.19671953 -0.5599776 -4.6487512e-05 0.44912827 -0.27522224
0.45785874 -0.048626006 0.25687692 -0.5002641 0.061748836 -0.16655958 -0.48263755 -0.004080717
-0.047672816 -0.19578972 0.3023056 -1.0071739 -0.23899569 -0.52645177 0.59104073 -0.7395062
-0.19589533 0.1285992 -0.05192574 0.31796882 -0.5695262 -0.44314507 -0.072887965 -0.5603475
-0.276761 -0.20847677 0.07044144 0.0058477707 0.22256884 -0.04843202 0.35828397 -0.014697004
0.5388483 -0.5324325 -0.5025603 -0.23421746 0.01560491 -0.14690499 -0.21001223 0.052064545
-0.58471906 0.04018978 -0.035455525 0.0828696 0.08456471 -0.20405956 -0.47940072 0.038383618
-0.43180797 -0.5726614 -0.09822574 0.23440363 0.2982042 0.38222104 -0.45465612 -0.16536272
0.29498437 0.15661065 -0.22669381 0.2916509 -0.060864907 0.38302493 0.023272661 0.22662023
00000000: 0c1a b1bd 4614 bf3e 8b52 e9be 7ad9 d63e
00000010: 4daf fa3c 75e0 dbbe e133 233f 8626 1c3c
00000020: 2a1c d23e bc79 19bf 5082 d6be 50cc a3bd
00000030: b6e3 8db9 7f52 373e 3237 fcbe 6f62 bcbe
00000040: 1f63 3a3e 582e 67be e594 b83e 1db0 72bd
00000050: 9334 583c 5c1f 4fbe 0697 afbe feca 21be
00000060: 5a1f a23e 4a47 f63d 97a6 163c 668c 55be
00000070: 53f8 b6be 3c18 8f3e d8cb 35be b2e0 debe
00000080: baaa ddbd e43f aebe 6de3 b93e e5bf 543d
00000090: c630 b2be 0111 a53c d66c 1bbf 41fd 2ebe
000000a0: 4237 4bbe 2961 9c3c bf12 233e e583 843d
000000b0: 628b 7cbe a778 2a3e d7df a53e 5cf7 f8bd
000000c0: be4a 6e3e 1221 dabe 716f 99be 13c6 33bd
000000d0: ead2 d53e 824c 1fbe 3cef b43c fb8b e5be
000000e0: bcb8 9b3e 05aa babb 3d85 6e3d d870 49be
000000f0: b15a 0fbf 96fb 42b8 24f4 e53e eee9 8cbe
00000100: 766c ea3e 102c 47bd 5f85 833e 4f11 00bf
00000110: 59ec 7c3d 988e 2abe 451c f7be 89b7 85bb
00000120: 9244 43bd 1a7d 48be cdc7 9a3e 13eb 80bf
00000130: 49bb 74be 8bc5 06bf 724e 173f 4750 3dbf
00000140: c998 48be 82af 033e 16b0 54bd cfcc a23e
00000150: 78cc 11bf e9e3 e2be 4946 95bd ef72 0fbf
00000160: 9eb3 8dbe ef7a 55be 9a43 903d a89e bf3b
00000170: 16e9 633e a760 46bd ff70 b73e b4cb 70bc
00000180: f6f1 093f 7f4d 08bf cba7 00bf b4d6 6fbe
00000190: bdab 7f3c 436e 16be 720d 57be a241 553d
000001a0: 26b0 15bf 0a9e 243d d039 11bd 89b7 a93d
000001b0: 4330 ad3d fdf4 50be 0374 f5be 2438 1d3d
000001c0: ef15 ddbe f099 12bf 942a c9bd 8107 703e
000001d0: 39ae 983e 7ab2 c33e b0c8 e8be d854 29be
000001e0: 3108 973e 8b5e 203e 6c22 68be 4453 953e
000001f0: 7b4d 79bd d81b c43e 4fa6 be3c 220f 683e

fc1.1.0.weight f4 [128, 128]
-0.019021219 -0.12375323 0.12129818 0.16574235 0.059928946 -0.2706069 0.16581921 -0.075018354
0.15376599 -0.1259127 0.14543977 0.05776007 0.018357579 -0.008807916 -0.31947654 -0.3873169
0.048186883 0.035339244 0.16532531 -0.13690872 -0.37370563 -0.1960126 0.074080095 -0.09052294
-0.14392737 -0.007192484 -0.078660734 0.607381 -0.106497705 0.0782945 -0.12158314 0.00179438
-0.027788302 0.034346763 0.24169219 0.0056489017 -0.4010756 0.045928385 -0.17148943 -0.07814379
-0.021354234 0.03062045 0.03985708 -0.15710108 0.05093299 0.19263667 0.065928124 -0.50326884
0.08295722 -0.41578192 -0.29092234 0.0541851 0.1462262 -0.68098557 -0.11963527 -0.36802858
0.0011627821 -0.060708243 0.023360282 0.0027796393 -0.135689 -0.10920769 0.110018335 -0.20145755
-0.07479857 -0.063082285 0.056356635 -0.33904216 0.021445496 -0.6513504 0.09774759 0.075177215
-0.09208254 -0.056534115 0.12695658 -0.17114171 -0.09866318 0.26933384 -0.0151781915 -0.08380177
-0.007207836 -0.010969615 -0.32265168 -0.017826421 -0.053643897 0.40896323 0.077129476 -0.10971359
-0.13131824 -0.08685021 -0.03694601 -0.09057817 0.010681178 -0.22458121 0.105020225 -0.37034094
0.28064013 -0.3051464 0.066097766 -0.38728446 -0.029827023 0.09574637 0.08024871 -0.6606297
-0.5028777 0.10336946 0.21238473 0.08156924 -0.0289567 -0.050626405 0.20197676 0.036484312
-0.3284614 -0.07530527 -0.06517263 0.11771779 -0.02588723 0.051827066 -0.3690463 0.019006921
0.016290054 -0.026529023 0.04910641 -0.045546524 -0.056363173 -0.026205469 -0.41522318 0.06252133
-0.08131457 -0.013921103 -0.076680556 -0.050757438 0.04193842 -0.08569077 -0.07209786 -0.015118111
0.07689814 0.06658035 0.010593463 0.05511925 0.07781884 -0.08635663 0.0649936 0.03333293
0.079727404 -0.08420834 -0.022995617 0.06534947 -0.06157746 0.04712527 -0.01573169 -0.0026098383
-0.05907515 0.05761902 0.04113656 0.050175015 0.048860658 -0.019674921 -0.01136633 -0.02069768
-0.0011941969 -0.09737957 -0.023062449 -0.05638361 -0.0834723 -0.022983124 0.03299722 -0.07999173
-0.10219619 0.042061385 -0.059802964 -0.031118903 0.018961625 0.06972575 -0.07818206 0.025841728
0.054309007 0.073177084 0.037266865 0.06304836 0.01627434 0.031853564 -0.07248423 0.029307116
-0.025793122 -0.05142907 -0.008088738 -0.005218865 -0.08739988 -0.104731284 -0.06604402 -0.083675645
-0.018751744 -0.09137065 0.06295801 -0.013811094 -0.020816552 -0.07146667 0.029810002 -0.06142153
0.012264134 -0.09202793 -0.025425274 -0.025229473 -0.070952035 -0.073290534 -0.045394003 -0.09781808
0.019382566 -0.056058004 -0.016231995 -0.057579212 -0.08419051 0.03255978 -0.0070276074 -0.06162177
0.064324066 0.051758654 -0.08083741 -0.044309292 -0.015393305 0.06483614 -0.09705754 -0.06731236
-0.058585905 0.00076470186 -0.01187556 -0.07306305 0.004845184 -0.04418886 0.046442453 0.056921467
-0.025895517 -0.024743425 0.04147702 0.05345836 0.067776866 -0.050087925 0.07630478 0.034554586
0.06341179 -0.07809223 0.057228945 0.05094514 -0.03868635 -0.05838685 0.025649602 -0.03555524
-0.09883411 0.054004826 -0.014424222 -0.0511531 -0.077229224 0.0070902794 -0.088237606 -0.010063694
00000000: 63d2 9bbc 5572 fdbd 2e6b f83d 5db8 293e
00000010: 0e78 753d fd8c 8abe 83cc 293e 39a3 99bd
00000020: d574 1d3e 42ef 00be 2aee 143e d395 6c3d
00000030: a262 963c 144f 10bc 6e92 a3be 674e c6be
00000040: 9c5f 453d e2bf 103d 0a4b 293e cd31 0cbe
00000050: 5856 bfbe 87b7 48be 4eb7 973d 1764 b9bd
00000060: b261 13be eeae ebbb e118 a1bd 527d 1b3f
00000070: 781b dabd de58 a03d 9500 f9bd 6731 eb3a
00000080: 4ba4 e3bc 31af 0c3d 287e 773e 6c1a b93b
00000090: c859 cdbe 671f 3c3d ed9a 2fbe da09 a0bd
000000a0: 13ef aebc bdd7 fa3c 2d41 233d 1bdf 20be
000000b0: 1c9f 503d 8c42 453e 5305 873d 3ad6 00bf
000000c0: 7ae5 a93d 5ee1 d4be c6f3 94be 32f1 5d3d
000000d0: 52bc 153e 1255 2ebf 5603 f5bd 3e6e bcbe
000000e0: 7e68 983a 35a9 78bd 105e bf3c 9c2a 363b
000000f0: 0ff2 0abe 48a8 dfbd 4b51 e13d e34a 4ebe
00000100: fe2f 99bd 4931 81bd 37d6 663d ef96 adbe
00000110: 77ae af3c e6be 26bf e32f c83d 83f6 993d
00000120: c595 bcbd 5190 67bd e800 023e c63f 2fbe
00000130: ec0f cabd 20e6 893e f3ad 78bc 43a0 abbd
00000140: b62f ecbb e6b9 33bc 9a32 a5be b708 92bc
00000150: b4b9 5bbd a163 d13e 0ff6 9d3d 85b1 e0bd
00000160: 4a78 06be 86de b1bd b354 17bd 0c81 b9bd
00000170: 1c00 2f3c 9ef8 65be d814 d73d 549d bdbe
00000180: 10b0 8f3e 263c 9cbe 445e 873d 264a c6be
00000190: cd57 f4bc ac16 c43d 7059 a43d 071f 29bf
000001a0: 98bc 00bf 5eb3 d33d 627b 593e c60d a73d
000001b0: 9a36 edbc a25d 4fbd ffd2 4e3e 9370 153d
000001c0: 182c a8be a639 9abd 3a79 85bd 0616 f13d
000001d0: 7511 d4bc 9e48 543d a3f3 bcbe 67b4 9b3c
000001e0: b872 853c 6553 d9bc ce23 493d fe8e 3abd
000001f0: 12dd 66bd daac d6bc 2298 d4be 2f0b 803d
00000200: 4188 a6bd 5715 64bc b20a 9dbd 08e7 4fbd
00000210: 9fc7 2b3d a47e afbd 0ba8 93bd f4b1 77bc
00000220: c67c 9d3d 475b 883d 3490 2d3c b9c4 613d
00000230: 7c5f 9f3d bfdb b0bd 5d1b 853d 1c88 083d
00000240: 1f48 a33d 6c75 acbd 4e61 bcbc f1d5 853d
00000250: a638 7cbd 6d06 413d bfdf 80bc d209 2bbb
00000260: c9f8 71bd ec01 6c3d cf7e 283d 5184 4d3d
00000270: 1d22 483d 4d2d a1bc d839 3abc 2e8e a9bc
00000280: 9986 9cba f16e c7bd 76ed bcbc 80f2 66bd
00000290: 86f3 aabd 1b47 bcbc 1828 073d b4d2 a3bd
000002a0: 3c4c d1bd 8f48 2c3d f4f3 74bd 12ed febc
000002b0: 6955 9b3c 60cc 8e3d ea1d a0bd 08b2 d33c
000002c0: 1f73 5e3d dedd 953d 24a5 183d 801f 813d
000002d0: c451 853c e278 023d 9d72 94bd 7a15 f03c
000002e0: 194c d3bc 4aa7 52bd a086 04bc 0303 abbb
000002f0: b5fe b2bd 5b7d d6bd 1642 87bd 235e abbd
00000300: 429d 99bc 8920 bbbd 21f0 803d ed47 62bc
00000310: 7987 aabc 1e5d 92bd 1b34 f43c 2495 7bbd
00000320: 82ef 483c 2479 bcbd aa48 d0bc 0aae cebc
00000330: 4d4f 91bd 5919 96bd 10ef 39bd d854 c8bd
00000340: 30c8 9e3c 149d 65bd f6f8 84bc 2ed8 6bbd
00000350: 136c acbd 675d 053d d847 e6bb 1c67 7cbd
00000360: 56bc 833d e200 543d 168e a5bd a97d 35bd
00000370: 3334 7cbc cfc8 843d 1bc6 c6bd 10db 89bd
00000380: c6f7 6fbd 4676 483a b591 42bc 15a2 95bd
00000390: 59c4 9e3b 61ff 34bd 713a 3e3d 7c26 693d
000003a0: d622 d4bc b9b2 cabc cfe3 293d 27f7 5a3d
000003b0: 99ce 8a3d ff28 4dbd ae45 9c3d 1c89 0d3d
000003c0: 0ade 813d d2ee 9fbd e668 6a3d daab 503d
000003d0: 9475 1ebd 0d27 6fbd 1d1f d23c 5fa2 11bd
000003e0: 8a69 cabd 2a34 5d3d 9253 6cbc ea85 51bd
000003f0: 5b2a 9ebd 9355 e83b ebb5 b4bd 31e2 24bc

fc1.1.0.bias f4 [128]
-0.07653524 -0.10428514 -0.007836175 0.019436797 0.03809903 -0.06748147 -0.017073076 0.017870821
0.021482777 0.041951373 0.048166588 -0.07349685 -0.09115701 0.0132761635 -0.09682498 -0.018461233
0.06106452 -0.07409977 0.02746039 0.042680636 0.08104386 -0.08789884 0.10207615 -0.05943761
0.05301968 0.012144648 -0.025201997 -0.050021973 0.047114495 0.0038305388 -0.04453769 -0.031449467
0.0017976495 0.058234498 0.0100614475 0.07562399 0.03661673 -0.1602685 -0.10461445 0.012051181
-0.010998281 -0.09364977 0.08955015 -0.07094428 0.027741201 -0.09519813 0.0125306295 -0.029678086
-0.05918785 -0.068588905 0.025117276 -0.03253857 0.055457275 -0.08350305 0.03023815 -0.015020672
0.013537904 -0.08709078 -0.06485957 -0.07279103 -0.00084034866 -0.033135302 -0.06805021 0.17746878
0.07751244 0.13141975 0.048685588 -0.04025078 0.12107886 -0.05047906 0.10503156 -0.013315608
0.017469553 0.036642488 0.084374845 0.18322185 -0.009513578 0.025905287 0.022800347 0.063501835
-0.006454098 -0.038957324 0.27939418 -0.104387216 -0.005106246 0.19351311 -0.05131545 0.01909064
-0.010946048 -0.036588356 -0.043500453 0.15232605 0.08766631 0.03844302 0.12145366 0.00657327
-0.07094424 0.0847678 -0.09790664 -0.0073496075 0.041149557 0.06603176 -0.03933993 0.028636605
0.04541497 0.032273598 -0.03992483 -0.049315784 0.016145315 -0.08504184 0.029521624 0.17609629
-0.14772159 0.0863665 0.0058491593 0.06156364 -0.027650109 -0.0081149535 -0.054044675 0.06736674
0.023311693 -0.061875597 -0.04828571 -0.051885273 -0.0059265876 -0.07535538 -0.033449825 -0.045524724
00000000: 82be 9cbd 7393 d5bd 4d63 00bc eb39 9f3c
00000010: ba0d 1c3d ba33 8abd d6dc 8bbc d465 923c
00000020: a6fc af3c 34d5 2b3d 544a 453d 8485 96bd
00000030: 87b0 babd 4484 593c 2d4c c6bd 033c 97bc
00000040: ca1e 7a3d 9fc1 97bd 9df4 e03c e4d1 2e3d
00000050: 53fa a53d 4f04 b4bd 4d0d d13d da74 73bd
00000060: 2a2b 593d 58fa 463c 6b74 cebc d7e3 4cbd
00000070: 21fb 403d c709 7b3b 276d 36bd 28d1 00bd
00000080: 1c9f eb3a 4c87 6e3d c5d8 243c c0e0 9a3d
00000090: 6dfb 153d 6d1d 24be 1a40 d6bd 5172 453c
000000a0: 2232 34bc 73cb bfbd 1266 b73d 3c4b 91bd
000000b0: 8441 e33c 3df7 c2bd 454d 4d3c 751f f3bc
000000c0: f66e 72bd 5778 8cbd bfc2 cd3c 2a47 05bd
000000d0: 2b27 633d a603 abbd ffb5 f73c 4419 76bc
000000e0: 16ce 5d3c a75c b2bd 18d5 84bd 7713 95bd
000000f0: d84a 5cba e2b8 07bd e95d 8bbd 60ba 353e
00000100: d8be 9e3d e692 063e 8a6a 473d 00de 24bd
00000110: 31f8 f73d 21c3 4ebd c91a d73d b529 5abc
00000120: 4f1c 8f3c 6f16 163d b8cc ac3d 829e 3b3e
00000130: d7de 1bbc 5337 d43c cbc7 ba3c 400d 823d
00000140: e67c d3bb b791 1fbd c10c 8f3e f7c8 d5bd
00000150: 4c52 a7bb 4d28 463e 2630 52bd f963 9c3c
00000160: 0e57 33bc acdd 15bd 882d 32bd 5cfb 1b3e
00000170: 658a b33d 6e76 1d3d b2bc f83d 9664 d73b
00000180: 374b 91bd be9a ad3d 4783 c8bd fad4 f0bb
00000190: 708c 283d a93b 873d e822 21bd 5097 ea3c
000001a0: 0c05 3a3d 5231 043d 3888 23bd 59ff 49bd
000001b0: 2e43 843c 6b2a aebd 55d7 f13c 9652 343e
000001c0: 5444 17be ebe0 b03d 4eaa bf3b 282a 7c3d
000001d0: 7b82 e2bc 95f4 04bc f35d 5dbd 93f7 893d
000001e0: 2af8 be3c 4471 7dbd 3dc7 45bd a785 54bd
000001f0: d233 c2bb ec53 9abd af02 09bd 2278 3abd

fc_mu.weight f4 [1, 128]
-0.17295043 -0.054610934 0.029418973 -0.19820562 -0.04811479 -0.35107172 -0.29873386 0.8281144
0.027483985 0.0048113638 0.85873014 0.027304383 -0.044574425 -0.08583941 -0.19030005 0.019527635
0.60571164 0.041654035 0.01570263 -1.2169139 -0.0040314766 -0.050550297 0.03601631 0.071572214
-0.014956308 0.0098331515 0.27024266 -0.053164173 0.07792095 -0.025330922 0.045476872 -0.85129064
-0.041321423 0.011600811 0.0057871263 1.1457425 -0.0038496277 0.3766991 0.20477134 0.017249946
-0.35993317 -0.09543593 0.013174048 -0.3917504 -0.036640108 -0.04809288 0.6588655 -0.7568579
-0.7477616 0.52386314 -0.0028474503 0.588584 0.03397222 -0.01810639 -1.3416387 0.036625214
-0.019930022 -0.07075575 -0.020367054 0.0109267635 0.7781219 0.051967006 -0.0060503245 0.0067067645
-0.6588195 -0.0010202788 0.03586765 0.078127846 0.6325606 0.3482983 -0.6622339 -0.08354942
-0.017909491 0.84182847 0.45000854 0.03367348 -0.12342166 0.38863918 -0.5164378 0.820501
0.063486256 -0.008549716 0.06126345 -0.0017780574 -0.6526052 0.5050533 -0.006210031 -0.35398147
-0.11226596 -1.049759 -0.0028693716 -0.017244965 0.42278752 0.009260132 -0.00077552535 0.614708
-0.024654476 -0.0051762825 -0.14523748 0.011271573 0.37827206 -0.06444281 -0.014674332 0.023127444
-0.01849043 0.25954673 0.0027016192 0.008242137 -0.028087387 0.06935103 0.071209654 0.01917875
0.2273648 -0.3910526 -0.81224424 0.051084373 0.09206097 -0.0029511491 0.0073135034 -0.033271153
0.26912442 -0.045607742 0.048074726 -0.08334007 -0.4228693 0.03135147 0.0072109625 0.2091369
00000000: eb19 31be b7af 5fbd 0f00 f13c 6af6 4abe
00000010: 0414 45bd acbf b3be a5f3 98be 4eff 533f
00000020: 1826 e13c a5a8 9d3b bdd5 5b3f 71ad df3c
00000030: ac93 36bd 93cc afbd 04de 42be 6bf8 9f3c
00000040: eb0f 1b3f 6c9d 2a3d cda2 803c d6c3 9bbf
00000050: 7a1a 84bb d40d 4fbd d785 133d 7494 923d
00000060: 4d0b 75bc 3a1b 213c 3f5d 8a3e adc2 59bd
00000070: 0595 9f3d cb82 cfbc f545 3a3d 2fee 59bf
00000080: a740 29bd 5411 3e3c efa1 bd3b b1a7 923f
00000090: 094a 7cbb b4de c03e 94af 513e c24f 8d3c
000000a0: 2949 b8be ea73 c3bd f6d7 573c 8293 c8be
000000b0: f013 16bd 0afd 44bd 69ab 283f 70c1 41bf
000000c0: 4e6d 3fbf e51b 063f 4a9c 3abb 71ad 163f
000000d0: 7426 0b3d da53 94bc d1ba abbf 5204 163d
000000e0: 4944 a3bc 64e8 90bd cfd8 a6bc 2b06 333c
000000f0: ff32 473f 5bdb 543d cd41 c6bb 6bc4 db3b
00000100: 65a8 28bf e0ba 85ba f5e9 123d 7e01 a03d
00000110: 7eef 213f 2854 b23e 2988 29bf f51b abbd
00000120: edb6 92bc 1282 573f 8567 e63e 34ed 093d
00000130: 7fc4 fcbd b7fb c63e 4535 04bf 5b0c 523f
00000140: 1505 823d 1c14 0cbc 62ef 7a3d b50d e9ba
00000150: 2211 27bf 2c4b 013f 847d cbbb 0f3d b5be
00000160: b2eb e5bd 815e 86bf 110c 3cbb 5045 8dbc
00000170: 9b77 d83e cfb7 173c a04c 4bba 815d 1d3f
00000180: 2ff8 c9bc ce9d a9bb 22b9 14be 67ac 383c
00000190: e0ac c13e 98fa 83bd 9c6c 70bc c475 bd3c
000001a0: 3e79 97bc 4fe3 843e a60d 313b 070a 073c
000001b0: 8517 e6bc ea07 8e3d 5ed6 913d c11c 9d3c
000001c0: 51d2 683e 0c38 c8be 3def 4fbf d93d 513d
000001d0: 768a bc3d 1168 41bb 1da6 ef3b 5547 08bd
000001e0: adca 893e 2fcf 3abd 01ea 443d 33ae aabd
000001f0: 5382 d8be 666a 003d f049 ec3b fc27 563e

fc_std.weight f4 [1, 128]
0.14110152 -0.0030724434 0.016316408 0.056511194 0.049540218 0.53124064 -0.04165078 0.16511035
0.0017798716 -0.047542375 0.25596407 -0.023137808 0.042559944 0.012160857 0.026247058 0.025283039
0.44709292 -0.048273366 -0.0805706 0.5583669 -0.2694501 0.054747283 -0.018347884 -0.026094228
-0.13220304 -0.027143698 0.18803348 0.0062037944 -0.21444 -0.032077003 -0.015324765 0.3434329
0.03216454 0.06640022 -0.13559046 0.20807911 0.012224548 0.08112287 -0.15719333 0.013282579
0.055308476 0.07509511 0.123748615 0.11162352 0.059507664 0.06831033 0.19728908 0.59218115
0.2507212 0.105480134 0.027611619 0.23287736 0.06419561 0.037672166 0.644906 -0.026192559
-0.03526962 -0.1035125 0.036296118 -0.0007579021 0.31493255 -0.12196544 0.07520808 -0.38278502
0.16216442 -0.483492 -0.042747848 -0.06457269 0.3996769 0.19356245 0.25942653 -0.040530745
0.0054664523 0.27574182 0.26311493 -0.12918352 0.15541558 0.04881641 0.15076312 0.3784919
0.06976412 0.013698089 -0.22635944 0.022830179 0.5714311 0.11867892 0.031854287 0.21349089
-0.028763121 0.47501734 -0.12517384 -0.3614862 -0.15366769 -0.00014457045 -0.37542048 0.27876443
0.04460354 -0.100559704 0.09042726 0.043997765 0.09221085 0.06646234 -0.12866108 -0.06543319
0.068206966 -0.093822934 -0.09931107 -0.22080663 0.009276446 -0.08254907 -0.04599988 -0.34774402
-0.10299458 0.0954571 0.36369002 0.061649356 -0.074911244 -0.03575721 -0.060549997 -0.11587979
0.20339583 0.060430244 0.004884767 0.049108136 0.11557009 0.05424477 0.055960774 0.08225141
00000000: eb7c 103e 0c5b 49bb fda9 853c 4878 673d
00000010: afea 4a3d 63ff 073f 029a 2abd b012 293e
00000020: 954a e93a cbbb 42bd b90d 833e 808b bdbc
00000030: 5653 2e3d 553e 473c 1204 d73c 601e cf3c
00000040: 5de9 e43e 4bba 45bd 3302 a5bd 22f1 0e3f
00000050: 5df5 89be b03e 603d 4d4e 96bc 90c3 d5bc
00000060: 3c60 07be 765c debc d98b 403e 3349 cb3b
00000070: 2996 5bbe 2d63 03bd b914 7bbc 70d6 af3e
00000080: f7be 033d d7fc 873d 3ad8 0abe b112 553e
00000090: 7849 483c bf23 a63d 4af7 20be 2d9f 593c
000000a0: 248b 623d 77cb 993d ea6f fd3d df9a e43d
000000b0: 4fbe 733d 49e6 8b3d 2606 4a3e 2f99 173f
000000c0: 875e 803e f805 d83d c331 e23c 6777 6e3e
000000d0: fd78 833d 214e 1a3d 8f18 253f c791 d6bc
000000e0: e176 10bd 5dfe d3bd 3dab 143d f3ad 46ba
000000f0: d73e a13e 04c9 f9bd b206 9a3d 66fc c3be
00000100: 6e0e 263e 438c f7be 5e18 2fbd b03e 84bd
00000110: 73a2 cc3e 3c35 463e 8ed3 843e 9103 26bd
00000120: ed1f b33b 082e 8d3e 00b7 863e af48 04be
00000130: 4325 1f3e b7f3 473d a661 1a3e b1c9 c13e
00000140: 7ee0 8e3d f36d 603c c5ca 67be 5b06 bb3c
00000150: 4f49 123f ef0d f33d a479 023d 5b9d 5a3e
00000160: a3a0 ebbc 7935 f33e 922d 00be b814 b9be
00000170: 105b 1dbe d697 17b9 1d37 c0be 36ba 8e3e
00000180: 34b2 363d 3ff2 cdbd ed31 b93d 0037 343d
00000190: 0bd9 bc3d 681d 883d bbbf 03be d601 86bd
000001a0: 18b0 8b3d 3d26 c0bd 9a63 cbbd 221b 62be
000001b0: 3cfc 173c 7d0f a9bd 5f6a 3cbd 810b b2be
000001c0: d3ee d2bd 037f c33d 9435 ba3e 0984 7c3d
000001d0: 116b 99bd 2776 12bd 4603 78bd 6252 edbd
000001e0: ff46 503e b485 773d 6510 a03b 9d25 493d
000001f0: 03b0 ec3d c42f 5e3d 2037 653d 6d73 a83d
