sac-4-2000.pt (torch, 138765 bytes, 8 tensors)

fc1.0.0.weight f4 [128, 3]
0.02555684 -0.5409381 -0.050182827 0.004369352 1.3412598 0.25670877 0.697566 0.8954746
0.33783165 -0.41431427 0.92869717 0.13625418 -0.48055524 0.73679024 0.12578097 -0.95858204
0.24440895 0.3609789 -0.68836635 0.94566697 0.2034044 0.22864631 -1.0661157 -0.20082517
-0.32177773 0.70995885 0.00613923 0.6497662 0.15389246 -0.33151332 0.54122156 1.0957705
0.43476415 -1.165912 -0.352744 -0.12547863 0.7007607 0.43146622 0.40228146 -0.75468516
-1.0785738 -0.2533388 -0.88320804 -0.2277784 0.23511949 -0.53122485 0.98507166 0.30939972
0.027499977 1.2497149 0.20394902 0.12812462 -1.0249039 0.10511984 -0.6176016 0.72921246
0.057841312 -0.0662775 -1.5497248 -0.4303312 0.40427694 0.8158371 0.3050142 0.35023928
-0.8612407 -0.23674782 0.17657486 -0.4545401 -0.0010646104 0.41674966 0.19725156 0.14520903
-0.1539703 0.68916786 0.11328238 0.16822258 1.1636434 0.34549236 -0.05554546 -0.20578763
0.0009647101 -0.012134131 0.29474512 0.0037361667 0.46901485 -0.70800954 -0.32185838 -0.7132078
-0.5837231 -0.19091876 0.031165197 -0.46227494 0.24960649 0.6456038 -0.4533073 -0.24774016
-0.3043006 -1.0142587 -0.23267448 -0.018711193 -0.0050319317 -0.001593751 -0.91941625 -0.40335962
-0.092724994 -0.50677663 0.23710659 0.39318445 0.7064344 0.33230934 0.27043086 0.01637595
0.6045533 0.03974216 0.5197915 -0.04038146 -0.22906668 -0.08578661 -0.31249946 0.32872656
-0.15751402 0.23517267 0.12036405 0.07740281 0.18898502 0.000997898 -0.042994235 1.1087121
0.19670999 -0.6076452 1.1274687 0.22206044 -0.10654484 0.5911474 0.10089877 -0.03716563
1.3614912 0.24089722 -0.5941019 0.28217557 -0.3282299 0.785947 0.10035431 0.39568952
-0.7239889 -0.5055992 -0.43898356 -0.5733464 1.107497 0.20664304 0.37370694 -0.5353146
-0.2974162 -0.30556846 -0.1902931 -0.27380717 -0.42372838 -0.30112287 0.1802145 0.8502993
0.28554657 0.32572657 0.11229483 -0.79242617 -0.12423137 -0.9810812 -0.03993314 0.28287727
-0.2571929 -1.2150092 -0.18181986 0.4122913 1.4165992 0.24030322 0.30688247 -0.6571219
-0.15261227 0.18022144 -0.8789243 0.10781194 0.7427127 -0.5303045 -0.27126005 -0.067651056
-1.188837 -0.40998337 -0.5611047 -0.8637868 -0.043080304 0.89180464 0.557474 0.33331138
-0.45603436 0.77741474 0.13897865 0.2154901 0.10712635 0.024254007 -0.5062529 -0.28375226
0.3568321 0.4706408 -0.28496504 -0.18327491 -0.17182007 -0.079420134 -0.12593399 0.7976898
0.39376384 0.28258988 0.714725 0.66161746 0.31165066 0.0032415912 0.05506367 1.8829078e-05
-0.7131744 -0.27753213 -0.50397986 0.33503568 -0.46654323 -0.2749162 -0.965778 0.5706772
0.09878241 0.5818071 -0.36679223 -0.31310442 -1.162424 -0.25056 -0.11895169 0.05681107
-0.05288376 0.038398582 -0.99245054 0.24407703 0.091013536 0.61505 0.029284103 -0.30060253
0.6421473 1.2553822 0.6445205 -0.18911354 -0.48962516 0.037962426 0.79080045 0.3909225
0.29500356 -0.26962683 0.5844613 0.0014460764 0.23480746 0.21624783 -0.16437311 0.7004972
00000000: 945c d13c eb7a 0abf 828c 4dbd c82c 8f3b
00000010: 67ae ab3f 556f 833e af93 323f d33d 653f
00000020: 45f8 ac3e 0021 d4be 19bf 6d3f 3786 0b3e
00000030: 560b f6be 499e 3c3f bacc 003e a265 75bf
00000040: 5746 7a3e 3ad2 b83e c738 30bf 3b17 723f
00000050: 3e49 503e 4222 6a3e 7b76 88bf 1da5 4dbe
00000060: 0dc0 a4be ddbf 353f 982b c93b 1457 263f
00000070: fc95 1d3e 1dbc a9be 7f8d 0a3f 3542 8c3f
00000080: 6899 de3e 9b3c 95bf dd9a b4be 787d 00be
00000090: 0e65 333f 24e9 dc3e d6f7 cd3e 0c33 41bf
000000a0: b50e 8abf a0b5 81be ec19 62bf be3e 69be
000000b0: 2ac3 703e 5afe 07bf a82d 7c3f a469 9e3e
000000c0: a247 e13c a8f6 9f3f 03d8 503e 1a33 033e
000000d0: 0d30 83bf 1249 d73d 231b 1ebf abad 3a3f
000000e0: 03eb 6c3d 7fbc 87bd 625d c6bf 5f54 dcbe
000000f0: 63fd ce3e b3da 503f d22a 9c3e 9052 b33e
00000100: 457a 5cbf 056e 72be 0ad0 343e 7bb9 e8be
00000110: 668a 8bba 3660 d53e 50fc 493e adb1 143e
00000120: 64aa 1dbe 4e6d 303f 9800 e83d 8a42 2c3e
00000130: 44f2 943f 60e4 b03e a383 63bd feb9 52be
00000140: 99e4 7c3a 3cce 46bc d5e8 963e 7ada 743b
00000150: b722 f03e 1d40 35bf 9fca a4be c994 36bf
00000160: e16e 15bf 3580 43be 284e ff3c 4daf ecbe
00000170: d898 7f3e 4a46 253f e517 e8be 99af 7dbe
00000180: 4acd 9bbe 3bd3 81bf 3842 6ebe 3748 99bc
00000190: e7e2 a4bb 69e5 d0ba dd5e 6bbf 2785 cebe
000001a0: 9ae6 bdbd 1dbc 01bf 12cc 723e 794f c93e
000001b0: e3d8 343f 7324 aa3e ea75 8a3e db26 863c
000001c0: 01c4 1a3f adc8 223d 0e11 053f 0867 25bd
000001d0: 7590 6abe e4b0 afbd eeff 9fbe d94e a83e
000001e0: 5b4b 21be 1bd1 703e 6d81 f63d 5d85 9e3d
000001f0: 4a85 413e e7cb 823a b91a 30bd 47ea 8d3f
00000200: 586e 493e a38e 1bbf e550 903f d063 633e
00000210: 2e34 dabd 7055 173f 04a4 ce3d fd3a 18bd
00000220: 5845 ae3f c3ad 763e 1017 18bf 5179 903e
00000230: c00d a8be d333 493f 8f86 cd3d d197 ca3e
00000240: 5657 39bf f36e 01bf 74c2 e0be d4c6 12bf
00000250: 76c2 8d3f 3c9a 533e 8456 bf3e 610a 09bf
00000260: f046 98be 7873 9cbe 32dc 42be 7430 8cbe
00000270: edf2 d8be c72c 9abe 268a 383e 37ad 593f
00000280: 2933 923e a2c5 a63e d5fa e53d 71dc 4abf
00000290: 046d febd 2328 7bbf ef90 23bd 4ad5 903e
000002a0: caae 83be 6c85 9bbf fc2e 3abe d817 d33e
000002b0: 1f53 b53f 0c12 763e b31f 9d3e 2439 28bf
000002c0: 6446 1cbe f88b 383e 2f01 61bf 82cc dc3d
000002d0: 6b22 3e3f 09c2 07bf 99e2 8abe a38c 8abd
000002e0: d02b 98bf 57e9 d1be 8fa4 0fbf 2221 5dbf
000002f0: f974 30bd 4f4d 643f 9eb6 0e3f caa7 aa3e
00000300: 567d e9be a704 473f 6b50 0e3e 70a9 5c3e
00000310: 0f65 db3d 57b0 c63c ca99 01bf fa47 91be
00000320: b2b2 b63e d5f7 f03e f0e6 91be 6bac 3bbe
00000330: 9af1 2fbe 06a7 a2bd d7f4 00be 6635 4c3f
00000340: 6a9b c93e 9faf 903e 38f8 363f c35f 293f
00000350: ad90 9f3e e070 543b 718a 613d 23f3 9d37
00000360: 9992 36bf b118 8ebe d304 01bf cc89 ab3e
00000370: c1de eebe d1c1 8cbe 3a3d 77bf e717 123f
00000380: 6f4e ca3d 4ff1 143f 31cc bbbe 394f a0be
00000390: 4fca 94bf 6649 80be f29c f3bd b9b2 683d
000003a0: a49c 58bd d547 1d3d 3d11 7ebf 54ef 793e
000003b0: 4e65 ba3d eb73 1d3f 37e5 ef3c 93e8 99be
000003c0: c463 243f 5db0 a03f 4cff 243f fba6 41be
000003d0: 26b0 fabe 7d7e 1b3d e671 4a3f fe26 c83e
000003e0: b50a 973e 870c 8abe 419f 153f 468a bd3a
000003f0: 5e71 703e 1270 5d3e 6d51 28be c953 333f

fc1.0.0.bias f4 [128]
-0.0068312814 0.036677703 -0.559461 0.24694912 0.2124539 -0.34618095 0.50887907 -0.0048423554
0.13230151 -0.6126712 -0.3815331 -0.22512545 -0.64201826 0.16249344 -0.5464385 -0.0032018502
0.026453536 -0.080804355 0.18145832 0.079030804 -0.35954654 -0.30674225 -0.5023248 -0.43750423
-0.2127374 -0.12079307 -0.22199225 -0.33751348 -0.54100984 0.35992515 0.1298743 -0.7901273
-0.12874079 -0.11897946 -0.11140855 0.28029215 -0.7388105 0.00062203436 -0.52709377 -0.23726445
-0.27947283 -0.20699035 0.07704802 0.00751827 -0.23376864 0.0884801 0.32675567 -0.7435594
0.29850817 -0.2345666 -0.4323032 0.06293498 0.19018771 -0.75249094 0.06570015 -0.34934917
0.30301675 -0.11633235 -0.2556514 -0.09737475 -0.8011339 0.042604737 0.57947004 -0.9593505
0.2714975 -0.2643345 0.16475983 -0.5488228 0.008978855 -0.7878516 -0.67893934 -0.06437766
0.078429416 -0.40184355 -0.0007906225 -1.011381 -0.23834753 -0.3790203 0.49591908 -0.57462436
-0.40247396 0.2677135 -0.8406755 0.09132178 -0.80949044 -0.5366742 -0.26781136 -0.5743075
-0.32213187 -0.2840312 0.1962221 -0.03456051 0.2344588 -0.04816648 0.2746111 0.066962555
0.25918368 -0.71839225 -0.59103185 -0.5767173 -0.07570282 -0.07532549 -0.18720295 -0.2132803
-0.6370202 -0.13236962 -0.4567053 0.12514625 -0.076857425 -0.30978593 0.020261692 -0.057259426
-0.30605337 -0.515561 0.032463834 0.114777446 -0.07795977 0.181353 -0.43315446 -0.5909417
0.033920206 0.16601104 -0.22947569 0.2550693 -0.0971206 0.088011704 -0.0073448997 0.36875793
00000000: f1d8 dfbb 5c3b 163d d638 0fbf 3be0 7c3e
00000010: 848d 593e a13e b1be e645 023f 9fac 9ebb
00000020: 0c7a 073e 05d8 1cbf 4e58 c3be 4987 66be
00000030: 4f5b 24bf ae64 263e 65e3 0bbf 22d6 51bb
00000040: 16b5 d83c c17c a5bd 36d0 393e e7da a13d
00000050: 7c16 b8be 520d 9dbe 5c98 00bf 8e00 e0be
00000060: d5d7 59be 5b62 f7bd f051 63be 91ce acbe
00000070: 9f7f 0abf 1c48 b83e c5fd 043e c845 4abf
00000080: a0d4 03be 81ab f3bd 2a2a e4bd 7482 8f3e
00000090: af22 3dbf 0510 233a 9eef 06bf 74f5 72be
000000a0: 1017 8fbe 47f5 53be 5acb 9d3d d25b f63b
000000b0: 0c61 6fbe 0e35 b53d 854c a73e e959 3ebf
000000c0: 10d6 983e 3a32 70be d856 ddbe 0ee4 803d
000000d0: 91c0 423e 3fa3 40bf cd8d 863d e5dd b2be
000000e0: 0325 9b3e a83f eebd bee4 82be 6a6c c7bd
000000f0: 1c17 4dbf 4e82 2e3d 2658 143f ff97 75bf
00000100: b801 8b3e da56 87be cdb6 283e a77f 0cbf
00000110: 0c1c 133c a4b0 49bf f8ce 2dbf 6fd8 83bd
00000120: 9a9f a03d 70be cdbe c741 4fba ef74 81bf
00000130: 6011 74be f30e c2be 1be9 fd3e 951a 13bf
00000140: 1111 cebe be11 893e 8236 57bf ea06 bb3d
00000150: c43a 4fbf 7b63 09bf 921e 89be d105 13bf
00000160: 78ee a4be 8a6c 91be 72ee 483e 528f 0dbd
00000170: f815 703e 374a 45bd d399 8c3e aa23 893d
00000180: b9b3 843e 8ee8 37bf dd4d 17bf bfa3 13bf
00000190: 150a 9bbd 4044 9abd 21b2 3fbe 2766 5abe
000001a0: c113 23bf e78b 07be 47d5 e9be 5726 003e
000001b0: 6d67 9dbd 439c 9ebe d9fb a53c dc88 6abd
000001c0: 07b3 9cbe cefb 03bf ccf8 043d 7010 eb3d
000001d0: 5fa9 9fbd 9ab4 393e 6cc6 ddbe f547 17bf
000001e0: eaef 0a3d ccfe 293e adfb 6abe 7198 823e
000001f0: 2ae7 c6bd 7b3f b43d 7cad f0bb d7cd bc3e

fc1.1.0.weight f4 [128, 128]
-0.070085384 -0.013477831 -0.08642259 -0.049494535 -0.0032753514 0.058700223 0.014307718 -0.032549724
0.05239423 -0.063396595 0.013769974 -0.08819929 -0.013835748 -0.036207717 -0.026356583 -0.048403528
0.079548135 -0.0022277972 -0.031500716 -0.021687688 -0.051644024 0.03185939 0.08023512 0.07334791
-0.011581896 0.06199024 -0.044391517 -0.076909915 0.041387696 0.040201273 -0.08295244 0.02372127
-0.042377494 0.023657395 0.06993859 0.020743733 0.048787728 -0.0009089561 -0.08349367 -0.015805755
0.016484154 0.06715371 -0.023411646 -0.06724723 -0.0707604 0.029267289 0.024773493 -0.027152132
0.058905695 -0.007830681 0.025606573 0.02144268 0.06819545 -0.06641006 -0.015855666 -0.073766366
0.015582018 0.019736774 0.057732962 0.030027252 -0.06648439 -0.059496228 0.030663144 0.07122478
-0.009982026 -0.052863292 -0.07038145 0.021479163 0.0037436297 0.038638953 -0.038079508 0.04280919
-0.09948763 -0.057511758 0.012062792 -0.03928098 -0.05129538 -0.058155943 -0.048829217 0.049838506
-0.056260645 0.01938902 0.06302373 -0.07381043 0.022390593 0.0715408 0.05194244 -0.010660076
-0.06361002 -0.031042384 -0.013037082 -0.003349803 -0.0111223105 0.046551008 -0.050532755 -0.059665658
0.07381356 0.07225735 -0.0032873985 0.055273186 -0.0054624975 0.038067643 0.019445557 -0.009866579
-0.014115467 0.07279198 -0.016196223 0.06091131 -0.07219761 -0.02163754 -0.045810893 0.034392975
0.024454867 -0.0868134 -0.048585266 -0.023065282 -0.02468054 0.0005314085 0.021730242 -0.026095005
-0.02530789 0.041522007 -0.014869481 -0.08628417 -0.07014541 0.009502667 -0.09618225 0.039267395
-0.1132486 -0.013921103 -0.076680556 -0.09787334 0.04193842 -0.08569077 -0.09288574 -0.04551248
0.05124118 0.042469896 0.010593463 0.03575982 0.07781884 -0.11169993 0.0649936 0.03333293
0.079727404 -0.11820301 -0.05156735 0.03767195 -0.06157746 0.019679442 -0.0011013646 -0.0026098383
-0.05907515 0.05761902 0.043665044 0.023841737 0.019971952 -0.04403695 0.00465101 -0.04479632
-0.024843391 -0.12350407 -0.03873349 -0.05638361 -0.0834723 -0.04933202 0.00632629 -0.07999173
-0.11500456 0.042061385 -0.08137751 -0.031118903 0.018961625 0.06972575 -0.10170819 0.025841728
0.02981743 0.073177084 0.013885816 0.038150348 0.013965442 0.031853564 -0.11503498 0.029307116
-0.052752275 -0.05142907 -0.037015986 0.024419814 -0.11256701 -0.13323669 -0.09209415 -0.083675645
-0.06733742 -0.11505274 0.06295801 -0.04168226 -0.045282215 -0.07146667 0.029810002 -0.0823977
-0.011630121 -0.120431714 -0.06379652 -0.051317155 -0.08632826 -0.073290534 -0.064734764 -0.124077916
0.019382566 -0.031438187 -0.016231995 -0.07264317 -0.105364464 0.03255978 -0.0070276074 -0.08120446
0.03623582 0.025121031 -0.08083741 -0.06918417 -0.039183922 0.06483614 -0.12548812 -0.06731236
-0.04456754 0.00076470186 -0.01187556 -0.07306305 -0.028198808 -0.04418886 0.046442453 0.056921467
-0.052570865 -0.055816274 0.05721344 0.030092739 0.03729551 -0.022637032 0.07630478 -0.0022402983
0.06341179 -0.07809223 0.031820126 0.05094514 -0.03868635 -0.08062706 -0.0019298035 -0.03555524
-0.12153569 0.010596533 -0.049808234 -0.0511531 -0.1089686 -0.008734204 -0.088237606 -0.034423336
00000000: ed88 8fbd 1fd2 5cbc 54fe b0bd c8ba 4abd
00000010: 47a7 56bb a56f 703d eb6a 6a3c dc52 05bd
00000020: 559b 563d 13d6 81bd 759b 613c d4a1 b4bd
00000030: 55af 62bc 8b4e 14bd c3e9 d7bc c742 46bd
00000040: 22ea a23d 3c00 12bb e506 01bd 61aa b1bc
00000050: af88 53bd fe7e 023d 5052 a43d 6e37 963d
00000060: fec1 3dbc 7ae9 7d3d e1d3 35bd f282 9dbd
00000070: 2586 293d 17aa 243d f8e2 a9bd 1c53 c23c
00000080: 0694 2dbd 27cd c13c f73b 8f3d c3ee a93c
00000090: a4d5 473d 0347 6eba bbfe aabd 127b 81bc
000000a0: c709 873c e287 893d c8c9 bfbc eab8 89bd
000000b0: d4ea 90bd f4c1 ef3c c8f1 ca3c 266e debc
000000c0: 1947 713d 424c 00bc e0c4 d13c 8fa8 af3c
000000d0: 0eaa 8b3d ff01 88bd bee3 81bc d212 97bd
000000e0: b84b 7f3c 04af a13c 6679 6c3d b6fb f53c
000000f0: f828 88bd 51b2 73bd 4631 fb3c 4cde 913d
00000100: a78b 23bc 2e87 58bd 2624 90bd 12f5 af3c
00000110: af57 753b e143 1e3d 42f9 1bbd b058 2f3d
00000120: 2cc0 cbbd 7391 6bbd 04a3 453c 18e5 20bd
00000130: 1b1b 52bd ed34 6ebd 2501 48bd 7623 4c3d
00000140: 9071 66bd b9d5 9e3c 9612 813d ec29 97bd
00000150: 7a6c b73c fc83 923d 99c1 543d 99a7 2ebc
00000160: f845 82bd 994c febc 7c99 55bc 5e88 5bbb
00000170: 5a3a 36bc 45ac 3e3d 6ffb 4ebd fa63 74bd
00000180: 902b 973d a9fb 933d 6571 57bb 2366 623d
00000190: c0fe b2bb d1ec 1b3d 4a4c 9f3c 6fa7 21bc
000001a0: 8f44 67bc f613 953d f1ad 84bc 237e 793d
000001b0: 57dc 93bd 3641 b1bc 34a4 3bbd a6df 0c3d
000001c0: 9355 c83c 39cb b1bd 5801 47bd 67f3 bcbc
000001d0: d82e cabc 394e 0b3a 9f03 b23c 31c5 d5bc
000001e0: 7e52 cfbc fb12 2a3d 209f 73bc c1b5 b0bd
000001f0: 66a8 8fbd 13b1 1b3c 33fb c4bd d9d6 203d
00000200: e2ee e7bd 5715 64bc b20a 9dbd d171 c8bd
00000210: 9fc7 2b3d a47e afbd e13a bebd 4b6b 3abd
00000220: 46e2 513d eaf4 2d3d 3490 2d3c e478 123d
00000230: 7c5f 9f3d efc2 e4bd 5d1b 853d 1c88 083d
00000240: 1f48 a33d 6b14 f2bd 4938 53bd e74d 1a3d
00000250: a638 7cbd c836 a13c aa5b 90ba d209 2bbb
00000260: c9f8 71bd ec01 6c3d 1eda 323d bf4f c33c
00000270: 389c a33c 1760 34bd 8067 983b 597c 37bd
00000280: 5e84 cbbc b4ef fcbd 02a7 1ebd 80f2 66bd
00000290: 86f3 aabd 5f10 4abd c44c cf3b b4d2 a3bd
000002a0: 8387 ebbd 8f48 2c3d 41a9 a6bd 12ed febc
000002b0: 6955 9b3c 60cc 8e3d 624c d0bd 08b2 d33c
000002c0: af43 f43c dedd 953d 5581 633c 8a43 1c3d
000002d0: 4fcf 643c e278 023d 7697 ebbd 7a15 f03c
000002e0: c512 58bd 4aa7 52bd 139e 17bd 100c c83c
000002f0: 8889 e6bd 336f 08be dc9b bcbd 235e abbd
00000300: 34e8 89bd c5a0 ebbd 21f0 803d 04bb 2abd
00000310: d879 39bd 1e5d 92bd 1b34 f43c 20c0 a8bd
00000320: 438c 3ebc e7a4 f6bd c0a7 82bd f031 52bd
00000330: dfcc b0bd 5919 96bd a993 84bd 901c febd
00000340: 30c8 9e3c 54c5 00bd f6f8 84bc f1c5 94bd
00000350: 53c9 d7bd 675d 053d d847 e6bb 864e a6bd
00000360: 036c 143d 9fca cd3c 168e a5bd 6eb0 8dbd
00000370: 527f 20bd cfc8 843d f57f 00be 10db 89bd
00000380: 748c 36bd 4676 483a b591 42bc 15a2 95bd
00000390: 3001 e7bc 61ff 34bd 713a 3e3d 7c26 693d
000003a0: 8c54 57bd 9b9f 64bd a458 6a3d 0c85 f63c
000003b0: 2dc3 183d 4c71 b9bc ae45 9c3d f8d1 12bb
000003c0: 0ade 813d d2ee 9fbd d255 023d daab 503d
000003d0: 9475 1ebd cd1f a5bd 76f1 fcba 5fa2 11bd
000003e0: b4e7 f8bd 159d 2d3c b803 4cbd ea85 51bd
000003f0: ee2a dfbd e819 0fbc ebb5 b4bd 7cff 0cbd

fc1.1.0.bias f4 [128]
-0.09470168 -0.13268189 0.058320638 0.01981813 0.012471848 -0.10753156 -0.059806038 0.033761166
0.017704934 -0.016221179 0.028922884 -0.058616392 -0.13045405 -0.0053769844 0.21900646 -0.057537913
-0.12230633 -0.07607199 0.20763847 0.034904793 0.16782752 0.17619878 -0.04678266 -0.08659763
-0.0091172615 0.023123808 -0.054531235 0.010268803 -0.06505718 0.031290196 -0.07405194 0.048611287
-0.0030313204 -0.04799193 0.10133432 0.017649272 0.032069005 -0.09194617 -0.101506025 -0.021240104
0.18117747 0.09161841 0.19832599 -0.0393118 0.026974328 -0.073144116 0.0468216 -0.05814937
-0.14134839 0.1637203 0.007946418 0.06542315 0.028003091 -0.106277645 -0.045069426 -6.254074e-05
-0.01471457 -0.104874246 -0.054457597 -0.05316669 -0.042694643 -0.024735676 0.12583047 -0.0818702
0.23798323 -0.07335598 0.032523423 -0.061664842 0.033381864 0.0046560164 0.02117469 -0.05876798
-0.0037548998 0.2525286 0.046523467 0.21018527 -0.01913805 0.024685899 0.0723438 -0.024757385
-0.030354766 -0.03917011 -0.004051703 -0.15293773 0.01980626 0.18809539 -0.04821257 -0.03815448
0.06143484 -0.006721133 -0.05429518 0.0012063871 -0.044084474 0.025279835 -0.057043124 -0.16180423
-0.08064263 0.007481657 -0.08120789 0.018267678 -0.08756676 0.03950548 -0.2797105 0.01378287
0.08032373 0.13395736 -0.12288235 -0.17356563 0.0015048872 -0.09967256 0.011565033 0.28306586
-0.24926563 0.036061898 0.19256067 -0.14549424 0.27407867 -0.02985941 -0.11208163 -0.0281357
-0.0862901 0.03124549 -0.049116485 -0.16102168 0.027573269 -0.07635685 -0.036946964 -0.08081498
00000000: f4f2 c1bd c3dd 07be 9fe1 6e3d a259 a23c
00000010: b956 4c3c 8239 dcbd 2df7 74bd 2649 0a3d
00000020: f009 913c 47e2 84bc afef ec3c be17 70bd
00000030: bf95 05be 6a31 b0bb 3b43 603e e0ac 6bbd
00000040: be7b fabd a2cb 9bbd 2e9f 543e 54f8 0e3d
00000050: fada 2b3e 746d 343e 2d9f 3fbd 195a b1bd
00000060: 9160 15bc 246e bd3c 255c 5fbd 7b3e 283c
00000070: b33c 85bd 262a 003d 8ba8 97bd a11c 473d
00000080: 1ea9 46bb 3093 44bd 5e88 cf3d 3595 903c
00000090: ca5a 033d 464e bcbd 64e2 cfbd baff adbc
000000a0: 9686 393e 6fa2 bb3d f815 4b3e 6905 21bd
000000b0: 44f9 dc3c 95cc 95bd 02c8 3f3d 092e 6ebd
000000c0: a2bd 10be 4ba6 273e b131 023c 93fc 853d
000000d0: bd66 e53c 18a8 d9bd b89a 38bd 4e28 83b8
000000e0: 6115 71bc 4fc8 d6bd ee0e 5fbd 51c5 59bd
000000f0: 94e0 2ebd 79a2 cabc b4d9 003e 90ab a7bd
00000100: e0b1 733e a93b 96bd 4837 053d 4694 7cbd
00000110: 6cbb 083d 7f91 983b 8b76 ad3c b2b6 70bd
00000120: c414 76bb 6e4b 813e 648f 3e3d cf3a 573e
00000130: 66c7 9cbc 153a ca3c fc28 943d 00d0 cabc
00000140: 8faa f8bc d670 20bd 26c4 84bb b59b 1cbe
00000150: bd40 a23c 149c 403e 8b7a 45bd df47 1cbd
00000160: 19a3 7b3d f33c dcbb 9f64 5ebd a21f 9e3a
00000170: ec91 34bd a817 cf3c 0da6 69bd 02b0 25be
00000180: f727 a5bd b028 f53b 5250 a6bd 19a6 953c
00000190: 3456 b3bd 80d0 213d 3736 8fbe 8cd1 613c
000001a0: c580 a43d 1e2c 093e bea9 fbbd 30bb 31be
000001b0: a33f c53a 2121 ccbd 447b 3d3c 02ee 903e
000001c0: 7d3f 7fbe a4b5 133d a02e 453e 71fc 14be
000001d0: 0a54 8c3e b99b f4bc 0e8b e5bd d77c e6bc
000001e0: ddb8 b0bd 8bf6 ff3c 5e2e 49bd dee2 24be
000001f0: 56e1 e13c fb60 9cbd b355 17bd 5382 a5bd

fc1.2.0.weight f4 [128, 128]
-0.06453864 -0.016565774 0.047710888 -0.03452372 -0.12931104 -0.6539212 0.01477357 -0.060378123
0.04464258 -0.015891174 0.07124723 0.033848807 -0.15705247 -0.06850933 -0.18311262 0.025166653
0.1671598 0.08291087 -0.62743837 -0.14719635 0.062894344 -1.080891 0.03943767 -0.048462607
0.046472616 -0.068101175 0.11612532 -0.6802886 0.054048993 0.21991223 0.05305878 0.24648869
-0.016016334 -0.033112485 -0.42854702 0.026516525 -0.012714873 0.037307564 0.10832767 0.025527246
-0.5642244 -1.0614651 0.2553178 -0.030294497 0.0022364047 -0.06288738 0.07277027 -0.07082636
-0.07836011 -0.62917763 -0.025670622 0.023958934 0.05334712 -0.027587904 -0.028840462 0.052150294
-0.019930022 -0.041717764 -0.036106646 0.035581358 0.07824501 0.08208085 -0.5144203 -0.15864666
-0.91247195 0.04409951 0.04653168 0.07600857 0.024024483 0.0707269 -0.03976252 -0.008706339
-0.022797093 0.02249805 0.061049838 -0.84677315 -0.22972576 -0.19863114 0.0028815095 0.038837362
0.08013648 0.015889745 0.00948008 -0.36134246 -0.055296507 -0.37434706 0.008059759 -0.0630492
-0.08247379 -0.22963232 -0.030082202 -0.036067672 0.028847335 0.041002 0.014574115 0.060027257
-0.34751207 0.010756863 -0.06688259 -0.01568283 0.13166773 0.010999477 -0.32608634 0.023626786
-0.10491451 -0.20143488 -0.10344787 -0.12157004 -0.07362281 0.08102774 0.11418487 -0.12737793
-0.17664197 -0.07869803 -0.09055624 0.062241014 -0.07503938 -0.28691438 -0.046303093 -0.047896445
0.086807795 -0.025643762 0.04996468 -0.45294788 -0.027844375 0.031328194 0.028049376 0.026659245
0.075927846 -0.07206937 -0.019968858 0.027196992 -0.054144822 0.040367365 -0.021923898 -0.030754514
-0.07735902 0.0014965694 -0.044166148 -0.0315794 -0.047288116 0.061876252 -0.026054896 0.055006705
-0.020042127 -0.0057566166 -0.054662198 -0.08499946 -0.076900735 -0.07396376 0.06404738 -0.033582248
0.06533672 -0.08835184 -0.051012572 -0.12537254 0.014471542 -0.07842146 -0.09163514 -0.043920822
0.011342133 0.049994115 -0.10233137 -0.043191843 -0.06652416 0.046778638 -0.03130602 -0.047128484
-0.010135082 0.04714047 -0.02053282 0.06724657 0.039929777 0.0724286 0.06382936 -0.06578835
0.02119443 -0.120137095 -0.038352273 0.036637165 0.026134739 0.074872345 0.0290339 -0.019721877
-0.026492454 -0.040836297 -0.08359933 0.037993185 -0.05946932 0.08320746 -0.068656 0.054249648
-0.08115261 -0.005249345 -0.06832834 -0.046797562 -0.0718163 0.07495958 -0.0029403537 0.044936523
-0.05220441 -0.037083387 0.0083114505 0.05241999 -0.0911158 -0.010068677 -0.08546553 -0.00052273524
0.025630074 0.079689085 0.023374042 -0.04955496 0.024726016 -0.0054278993 0.024825903 0.028547127
0.034757517 -0.045859493 0.062131293 -0.09350035 -0.07474012 0.07138137 -0.0031226035 -0.0860088
-0.029584993 0.051712427 -0.07362696 0.0137276715 0.02946644 -0.111210026 0.010965914 0.028346675
-0.048222177 0.010988896 -0.08997021 -0.06372377 -0.06590293 0.017070549 -0.088222906 -0.09762179
-0.118111245 0.07267912 0.030572424 0.040715527 0.029808534 -0.08654308 -0.077785514 -0.053784736
-0.062319707 -0.101446986 0.03949861 0.0031409939 0.0525571 0.044306926 0.05038532 0.041516364
00000000: d62c 84bd f2b4 87bc 7e6c 433d bf68 0dbd
00000010: 1d6a 04be 6167 27bf d80c 723c 0d4f 77bd
00000020: 23db 363d 352e 82bc 11ea 913d 0ca5 0a3d
00000030: 5dd2 20be 9f4e 8cbd e081 3bbe 4c2a ce3c
00000040: f02b 2b3e 2dcd a93d cd9f 20bf a4ba 16be
00000050: c0ce 803d a35a 8abf 6589 213d ba80 46bd
00000060: 125a 3e3d a178 8bbd 1dd3 ed3d 6527 2ebf
00000070: 7a62 5d3d ac30 613e 2a54 593d 8867 7c3e
00000080: b034 83bc f5a0 07bd 846a dbbe 2f39 d93c
00000090: 0b52 50bc d1cf 183d e6da dd3d 841e d13c
000000a0: 0371 10bf 17de 87bf 04b9 823e 2a2c f8bc
000000b0: a590 123b 19cb 80bd 9408 953d 690d 91bd
000000c0: 447b a0bd c911 21bf 324b d2bc 8745 c43c
000000d0: 8282 5a3d 0700 e2bc d542 ecbc 8c9b 553d
000000e0: 4944 a3bc 3fe0 2abd 90e4 13bd c2bd 113d
000000f0: eb3e a03d 011a a83d 0cb1 03bf 4574 22be
00000100: c397 69bf b0a1 343d 0198 3e3d 62aa 9b3d
00000110: fece c43c 44d9 903d 06de 22bd 08a5 0ebc
00000120: f8c0 babc d54d b83c 650f 7a3d 20c6 58bf
00000130: 3b3d 6bbe f665 4bbe b5d7 3c3b ed13 1f3d
00000140: 981e a43d 362b 823c 5652 1b3c e101 b9be
00000150: 977e 62bd 6baa bfbe 140d 043c f01f 81bd
00000160: 05e8 a8bd bc24 6bbe f36e f6bc b2bb 13bd
00000170: 3f51 ec3c b7f1 273d 45c8 6e3c 24df 753d
00000180: 1aed b1be 8e3d 303c bdf9 88bd 4779 80bc
00000190: e8d3 063e 2637 343c caf4 a6be f68c c13c
000001a0: 6bdd d6bd f244 4ebe 7adc d3bd b7f9 f8bd
000001b0: 8ec7 96bd dff1 a53d c2d9 e93d 5c6f 02be
000001c0: a2e1 34be 6f2c a1bd 8d75 b9bd 6ff0 7e3d
000001d0: 3fae 99bd 71e6 92be 50a8 3dbd 102f 44bd
000001e0: 49c8 b13d de12 d2bc c4a7 4c3d c9e8 e7be
000001f0: e319 e4bc fe51 003d cec7 e53c 7d64 da3c
00000200: 0f80 9b3d 1b99 93bd bb95 a3bc 3acc de3c
00000210: f6c6 5dbd 4058 253d bf99 b3bc e4f0 fbbc
00000220: 686e 9ebd 8928 c43a 90e7 34bd 6759 01bd
00000230: 2fb1 41bd f471 7d3d 1471 d5bc b64e 613d
00000240: 632f a4bc 00a2 bcbb 78e5 5fbd 3214 aebd
00000250: 227e 9dbd 507a 97bd 462b 833d 8a8d 09bd
00000260: 42cf 853d cff1 b4bd 8ff2 50bd a961 00be
00000270: 0c1a 6d3c 6e9b a0bd 34ab bbbd 52e6 33bd
00000280: 5bd4 393c a1c6 4c3d 1c93 d1bd eee9 30bd
00000290: d23d 88bd f59a 3f3d be3a 00bd cc09 41bd
000002a0: 9d0d 26bc 5e16 413d 7234 a8bc 92b8 893d
000002b0: 688d 233d 7255 943d f8b8 823d 0bbc 86bd
000002c0: f19f ad3c 700a f6bd 4617 1dbd da10 163d
000002d0: 8518 d63c ac56 993d 80d8 ed3c c68f a1bc
000002e0: b406 d9bc f643 27bd 2036 abbd be9e 1b3d
000002f0: 1a96 73bd ac68 aa3d 849b 8cbd e134 5e3d
00000300: 5733 a6bd b302 acbb bbef 8bbd cdae 3fbd
00000310: 6d14 93bd 6984 993d f3b2 40bb 5c0f 383d
00000320: 4bd4 55bd c0e4 17bd c02c 083c 58b6 563d
00000330: ec9a babd 18f7 24bc 8d08 afbd 2b08 09ba
00000340: 29f6 d13c 0834 a33d eb7a bf3c 24fa 4abd
00000350: 378e ca3c 85dc b1bb b15f cb3c aadb e93c
00000360: e65d 0e3d 2ad7 3bbd 627d 7e3d 1d7d bfbd
00000370: 5911 99bd 6530 923d 98a4 4cbb 6225 b0bd
00000380: 3a5c f2bc 69d0 533d bbc9 96bd 07ea 603c
00000390: 9b63 f13c 15c2 e3bd 61aa 333c 4937 e83c
000003a0: 9e84 45bd c50a 343c 4d42 b8bd 9c81 82bd
000003b0: 1ef8 86bd 89d7 8b3c 36ae b4bd efed c7bd
000003c0: 4fe4 f1bd cad8 943d 0573 fa3c 53c5 263d
000003d0: 0731 f43c 803d b1bd 034e 9fbd 624d 5cbd
000003e0: f342 7fbd 70c3 cfbd 4bc9 213d 22d9 4d3b
000003f0: 1d46 573d 2e7b 353d d660 4e3d 100d 2a3d

fc1.2.0.bias f4 [128]
0.4042556 -0.12280286 0.25096506 0.23840474 -0.10857978 -0.16867323 0.16390212 0.19278935
0.0077561983 -0.09409087 0.07449061 0.024661528 -0.34514728 0.40906152 0.38447303 -0.13288102
-0.16781786 0.06893378 0.17227243 -0.14389831 -0.15264483 0.3555397 -0.04428844 -0.10995117
0.02591972 0.06744665 -0.028729055 0.004065397 -0.14680505 -0.15181544 -0.024954578 0.09273345
-0.07461526 0.20486411 -0.17193735 0.019445641 0.012196714 -0.1604533 -0.1438775 -0.30952558
0.047037836 0.022262711 0.27103618 0.24701715 -0.5560733 0.26964742 0.18695307 -0.1148484
-0.24101208 0.07044652 -0.03323751 -0.46625888 -0.13696414 -0.013505652 -0.24611382 -0.120244555
-0.053236682 -0.3092743 0.03010737 -0.5524607 -0.20811044 -0.30764693 -0.28558826 -0.06666992
0.1491058 -0.08755521 0.2793281 -0.4330873 0.061277486 -0.05564396 0.16915435 -0.12080586
0.028086321 -0.20510843 -0.351853 0.015675828 -0.14019936 0.21505763 0.111194745 0.011416368
0.30824664 -0.12201288 0.073634304 0.24868733 0.13417606 0.1224759 -0.024032257 -0.03158262
-0.12895529 -0.06857244 -0.45371398 0.13408959 0.14839114 -0.0614724 -0.055111382 -0.123698644
-0.20972638 0.41076255 0.28589624 -0.13361426 -0.033959433 0.14711654 0.26186624 0.016881403
-0.12452529 0.018979894 0.14940014 -0.003747582 0.12701815 0.27636835 -0.58447874 -0.112575375
0.014953333 0.14127155 -0.2031083 -0.19785973 0.013084579 -0.14025244 -0.19788398 -0.11881741
0.35441345 -0.22949827 0.34247848 0.12841828 0.27391112 -0.110891834 -0.2223735 0.21390294
00000000: 97fa ce3e 1180 fbbd 7e7e 803e 5f20 743e
00000010: 135f debd adb8 2cbe f5d5 273e 926a 453e
00000020: b527 fe3b b7b2 c0bd 888e 983d f906 ca3c
00000030: 25b7 b0be 8370 d13e a6d9 c43e f611 08be
00000040: 72d8 2bbe 272d 8d3d 2f68 303e 145a 13be
00000050: ed4e 1cbe 4d09 b63e cc67 35bd 142e e1bd
00000060: 9855 d43c 7821 8a3d 3259 ebbc 0637 853b
00000070: 1054 16be 8275 1bbe 8b6d ccbc 09eb bd3d
00000080: e3cf 98bd e6c7 513e 5810 30be 774c 9f3c
00000090: bad4 473c df4d 24be a054 13be 237a 9ebe
000000a0: bfaa 403d 4a60 b63c 41c5 8a3e 10f2 7c3e
000000b0: d25a 0ebf 3a0f 8a3e a070 3f3e a335 ebbd
000000c0: dfcb 76be 4446 903d 0e24 08bd 7cb9 eebe
000000d0: 5440 0cbe cf46 5dbc 4305 7cbe c742 f6bd
000000e0: b50e 5abd 3359 9ebe bba3 f63c 106e 0dbf
000000f0: e71a 55be e683 9dbe a038 92be 3d8a 88bd
00000100: 31af 183e 2550 b3bd 1804 8f3e 9ebd ddbe
00000110: 1afe 7a3d ecea 63bd cc36 2d3e 1069 f7bd
00000120: 4915 e63c f207 52be 1426 b4be 986a 803c
00000130: 6c90 0fbe 1138 5c3e 12ba e33d b80b 3b3c
00000140: 81d2 9d3e e4e1 f9bd 95cd 963d e4a7 7e3e
00000150: 7365 093e a5d4 fa3d 4cdf c4bc c75c 01bd
00000160: db0c 04be b56f 8cbd 334d e8be c84e 093e
00000170: d9f3 173e 7cca 7bbd 79bc 61bd b755 fdbd
00000180: 83c2 56be 784f d23e fe60 923e 2dd2 08be
00000190: 0c19 0bbd b8a5 163e 5513 863e de4a 8a3c
000001a0: 1e07 ffbd b97b 9b3c 5afc 183e fe99 75bb
000001b0: 0c11 023e 2780 8d3e 66a0 15bf eb8d e6bd
000001c0: d3fe 743c 7da9 103e 9ffb 4fbe be9b 4abe
000001d0: b460 563c 569e 0fbe 19a2 4abe 8b56 f3bd
000001e0: ae75 b53e 9801 6bbe 5759 af3e 1580 033e
000001f0: 143e 8c3e 421b e3bd e1b5 63be 5f09 5b3e

fc_mu.weight f4 [1, 128]
-0.58437955 0.0027548617 -0.3982884 -0.39229357 -0.044646356 -0.030823492 -0.44925782 -0.23120336
-0.19351749 -0.004153763 -0.37830243 0.09679397 0.29862934 -0.17590827 -0.530151 0.014334955
0.21530423 -0.039646816 0.22255346 -0.055563215 -0.114983164 -0.32139426 0.50752145 -0.006384083
0.05537235 0.21398881 0.010541398 0.08358747 -0.00044734284 0.11941248 0.22660321 -0.16070972
-0.017758414 -0.28705633 0.0944101 0.05972874 0.22484666 -0.10977233 0.0070938696 -0.100358
0.16811387 0.2424066 -0.010262409 -0.29477656 -0.21325482 -0.11729004 -0.37336543 -0.01292825
-0.022251053 0.13224459 0.09372538 0.087137766 0.12513131 -0.2041059 0.26151723 0.14386947
-0.016051123 0.13926531 0.14620455 -0.24859954 -0.0024102628 0.20576467 -0.17353094 0.1338411
0.031595983 0.08218291 0.05263206 -0.002356936 0.3023047 -0.017492952 0.09545007 0.013803567
0.038568188 0.01254645 -0.10485374 -0.04370498 0.3841708 -0.5393212 0.27254394 -0.054693922
-0.56132525 -0.06785605 0.14963444 -0.2486508 -0.33784986 -0.43809974 0.036801208 -0.09725516
-0.14934906 0.034991693 -0.089586794 0.04529785 -0.3624017 0.03533085 0.15567498 0.008393768
-0.023470659 -0.33899096 -0.16579705 -0.0069578155 0.053361036 0.46792606 -0.44617188 0.7136061
-0.00068825425 0.30833447 0.15280259 0.06048375 0.064813316 -0.26558796 -0.15047261 -0.019345498
0.25052515 -0.27616408 -0.062176608 -0.005620461 0.6088283 -0.019667987 0.009483472 -0.0020662632
0.50341636 0.039422758 -0.19798851 0.21451628 -0.029324202 -0.049812615 -0.002166118 0.18275073
00000000: e699 15bf e98a 343b 75ec cbbe b4da c8be
00000010: 19df 36bd 8c81 fcbc 1f05 e6be 93c0 6cbe
00000020: 7329 46be 4a1c 88bb dbb0 c1be eb3b c63d
00000030: f2e5 983e 4c21 34be fab7 07bf 29dd 6a3c
00000040: b678 5c3e b364 22bd 0ee5 633e 4196 63bd
00000050: 4b7c ebbd ca8d a4be edec 013f 9231 d1bb
00000060: 1ece 623d e21f 5b3e d4b5 2c3c e82f ab3d
00000070: 5789 eab9 888e f43d ac0a 683e 1791 24be
00000080: 187a 91bc 0cf9 92be 155a c13d 20a6 743d
00000090: 343e 663e 51d0 e0bd b173 e83b 7f88 cdbd
000000a0: 0b26 2c3e 7039 783e aa23 28bc f4ec 96be
000000b0: 795f 5abe c335 f0bd c129 bfbe 03d1 53bc
000000c0: d747 b6bc 206b 073e 18f3 bf3d 4975 b23d
000000d0: 6c22 003e 2301 51be 96e5 853e 8552 133e
000000e0: a57d 83bc 919b 0e3e a5b6 153e e190 7ebe
000000f0: 80f5 1dbb f9b3 523e 18b2 31be a40d 093e
00000100: ca6a 013d 834f a83d b794 573d d376 1abb
00000110: aec7 9a3e 614d 8fbc 547b c33d 5b28 623c
00000120: adf9 1d3d a08f 4d3c 8fbd d6bd fe03 33bd
00000130: 09b2 c43e f410 0abf e18a 8b3e bc06 60bd
00000140: 03b3 0fbf 1df8 8abd c539 193e 519e 7ebe
00000150: a8fa acbe 9c4e e0be ddbc 163d b72d c7bd
00000160: f6ee 18be 7353 0f3d 4879 b7bd 3d8a 393d
00000170: b78c b9be 15b7 103d 4369 1f3e 0486 093c
00000180: 8a45 c0bc 3990 adbe b4c6 29be 63fe e3bb
00000190: 1a91 5a3d 0194 ef3e a470 e4be e4ae 363f
000001a0: f66b 34ba 04de 9d3e 4878 1c3e cfbd 773d
000001b0: d8bc 843d 25fb 87be 7e15 1abe 737a 9ebc
000001c0: d544 803e 6165 8dbe e6ac 7ebd d82b b8bb
000001d0: 2cdc 1b3f c21e a1bc 9160 1b3c 256a 07bb
000001e0: e5df 003f c279 213d 80bd 4abe 28aa 5b3e
000001f0: 4f39 f0bc 5008 4cbd 6ef5 0dbb 0223 3b3e

fc_std.weight f4 [1, 128]
0.02443141 0.04928298 0.08136864 0.8876246 -0.017084315 -0.010306513 0.2586144 0.24160942
0.560664 0.057228804 0.22099635 0.45217794 -0.1271456 0.08808504 0.19380331 0.10218749
0.06315828 -0.3138958 0.24268697 0.27338833 -0.030566728 -0.34161177 0.22667642 0.30825415
-0.058205605 0.010184294 0.17189792 0.31345117 -0.039571885 0.12527576 -0.046324637 0.20720987
0.012852358 0.20966755 0.3888127 -0.15140347 0.084475845 0.060045354 0.028962826 0.04724198
0.10653386 0.22135685 -0.5286809 0.032350987 0.06326094 -1.40532 0.38680756 0.021987036
0.03718076 0.05866783 0.13331445 0.291423 0.023113228 0.21505679 0.3952702 0.10948022
-0.05254338 0.028123787 0.09082455 -0.21660762 0.11598598 0.14528354 -0.16976522 0.11794386
-0.47242117 0.2835901 -0.22138287 -0.01214046 0.04410013 -0.11956215 -0.101007506 0.021609923
-0.38561425 0.063022174 -0.01900061 -0.7578798 0.04929491 0.31791535 -0.059339244 0.1567331
0.1445203 0.010960163 0.1659916 0.119845666 0.50899726 0.18357977 -0.3146758 -0.019266453
-0.04044082 0.207182 -0.1661589 -0.5174547 0.1910564 0.009237126 0.133366 0.23870979
0.011452879 -0.26623562 -0.07936921 -0.011752818 0.27078193 -0.03354538 0.25293732 0.39900452
-0.0133905085 0.06950057 0.0918643 -0.13976222 -0.06708674 -0.1136216 -0.14634208 0.027748432
0.12382127 0.2692902 0.038905703 0.0062259613 0.18365656 0.054724865 0.03989233 -0.0467341
-0.19180632 0.05432746 -0.09796287 0.11064329 -0.48691472 0.14666371 0.1200104 0.053351805
00000000: 6124 c83c f3dc 493d 9aa4 a63d 5e3b 633f
00000010: 68f4 8bbc a6dc 28bc 1b69 843e 7668 773e
00000020: ad87 0f3f c068 6a3d de4c 623e de83 e73e
00000030: 7532 02be ee65 b43d 6074 463e ad47 d13d
00000040: 2159 813d f3b6 a0be ef82 783e 8ef9 8b3e
00000050: 1367 fabc bde7 aebe dd1d 683e 7dd3 9d3e
00000060: 0069 6ebd 06dc 263c 0206 303e ac7c a03e
00000070: 2116 22bd 4a48 003e e7be 3dbd d32e 543e
00000080: b292 523c 17b3 563e 7512 c73e 8309 1bbe
00000090: ac01 ad3d 1ef2 753d 7343 ed3c ce80 413d
000000a0: 6d2e da3d 5fab 623e a257 07bf 7882 043d
000000b0: f48e 813d 87e1 b3bf a40b c63e 281e b43c
000000c0: da4a 183d ae4d 703d 9583 083e 6535 953e
000000d0: f457 bd3c d937 5c3e db60 ca3e 2a37 e03d
000000e0: ba37 57bd db63 e63c 3902 ba3d 63ce 5dbe
000000f0: 0f8a ed3d 35c5 143e efd6 2dbe 8d8c f13d
00000100: 30e1 f1be b932 913e 31b2 62be c8e8 46bc
00000110: 57a2 343d 00dd f4bd 06dd cebd 4b07 b13c
00000120: 3b6f c5be c511 813d 2ba7 9bbc 6904 42bf
00000130: 76e9 493d cdc5 a23e b50d 73bd a47e 203e
00000140: 21fd 133e 4192 333c b4f9 293e a571 f53d
00000150: a54d 023f 56fc 3b3e 301d a1be aed4 9dbc
00000160: 46a5 25bd 8527 543e 8f25 2abe e977 04bf
00000170: 4aa4 433e 5157 173c 1991 083e 5770 743e
00000180: dba4 3b3c 0950 88be 538c a2bd e48e 40bc
00000190: eea3 8a3e e166 09bd 0081 813e 524a cc3e
000001a0: dd63 5bbc 5156 8e3d 5a23 bc3d d41d 0fbe
000001b0: c664 89bd 71b2 e8bd b3da 15be ae50 e33c
000001c0: 0296 fd3d 68e0 893e 965b 1f3d 2603 cc3b
000001d0: 7710 3c3e 2e27 603d 2466 233d 416c 3fbd
000001e0: e068 44be 7886 5e3d c2a0 c8bd f398 e23d
000001f0: e34c f9be 032f 163e 03c8 f53d 6c87 5a3d
