sac-2000.pt (torch, 5441 bytes, 4 tensors)

fc1.0.0.weight f4 [128, 3]
0	0xbc848575	-0.016176919
1	0xbdc1533c	-0.09439704
2	0xbe960e2b	-0.29307684
3	0x3ebf049a	0.37308198
4	0x3f516e4a	0.8180891
5	0x3ed4d6e3	0.41570196
6	0x3f4887f9	0.7833248
7	0x3f6d8726	0.92784345
8	0x3ebf9a39	0.3742235
9	0xbe84a0c0	-0.25903893
10	0x3f9de111	1.233431
11	0x3e4d438e	0.20045301
12	0xbeb0c92c	-0.34528482
13	0x3efbe132	0.49195248
14	0x3e9c4f7b	0.3052939
15	0xbefa0513	-0.48831996
16	0x3e342d3c	0.1759538
17	0x3ed69345	0.41909233
18	0xbf7c653c	-0.9859197
19	0x3f4ffd15	0.8124555
20	0x3ec20d57	0.37900802
21	0x3ebde2cc	0.37087095
22	0xbf8b003c	-1.0859447
23	0xbe8a227c	-0.26979434
24	0xbecc6bfc	-0.39926136
25	0x3ed48cd1	0.41513684
26	0x3e894729	0.26812103
27	0xbe696741	-0.22793294
28	0x3dabdfc1	0.08392287
29	0xbe84398c	-0.25825155
30	0x3f24bdb3	0.6435196
31	0x3eeb76d2	0.4598909
32	0x3ecbcfea	0.39807063
33	0xbe92a5f0	-0.28642225
34	0xbef9e87f	-0.48810193
35	0xbe6fe515	-0.23427232
36	0x3f591d4a	0.84810317
37	0x3f0ba93f	0.54555124
38	0x3ed18be8	0.40927052
39	0xbf2c3e72	-0.67282784
40	0xbf0e5f29	-0.5561395
41	0xbeb5933c	-0.35463893
42	0xbf28359e	-0.65706813
43	0x3e562c4d	0.20915337
44	0x3eca0953	0.3946024
45	0xbf1cd2d3	-0.6125919
46	0x3ed12e4f	0.40855643
47	0x3ebfcc13	0.37460384
48	0x3e40710c	0.18793124
49	0x3e4aeffa	0.19818106
50	0x3e5fa6c8	0.21840966
51	0x3ef2c69f	0.4741716
52	0x3d5b4902	0.053536423
53	0x3e8de4ae	0.2771353
54	0xbe58ed87	-0.2118436
55	0x3fb432c5	1.4077994
56	0x3e975464	0.29556572
57	0xbf4274e6	-0.7595962
58	0xbf59c402	-0.8506471
59	0xbec4299f	-0.38313004
60	0x3ef76c71	0.48324922
61	0x3e9fb58f	0.31193206
62	0x3eb77b28	0.35836148
63	0x3eccd1ff	0.40003964
64	0xbf6607af	-0.89855474
65	0xbe75acbf	-0.23991679
66	0x3e1d6d1b	0.15373652
67	0xbf89ce31	-1.076605
68	0x3e54b9d6	0.20774016
69	0x3f4e567a	0.806007
70	0xbd2ce7a8	-0.042213112
71	0x3db3b685	0.08775047
72	0x3eb5ebd5	0.35531488
73	0x3f195520	0.59895515
74	0x3eaf4941	0.34235576
75	0xbf257a9b	-0.64640206
76	0x3f4ef1cb	0.80837697
77	0x3e8969ca	0.26838523
78	0xbd5b8250	-0.053591073
79	0xbe455bc4	-0.19273287
80	0x3b8b4741	0.0042504375
81	0x3e9cc9db	0.30622754
82	0x3f70c078	0.94043684
83	0xbd5cbc43	-0.053890478
84	0x3f04c715	0.51866275
85	0xbf4d3efa	-0.8017422
86	0xbecd2044	-0.4006368
87	0xbf5baecc	-0.85813594
88	0x3d32b00d	0.043624926
89	0xbe1b4e77	-0.1516665
90	0x3ef17b75	0.47164503
91	0x3e1b887d	0.15188785
92	0x3ed9f6a8	0.42570996
93	0xbf147fee	-0.58007705
94	0xbe673343	-0.22578149
95	0xbec3cd1a	-0.38242418
96	0x3e25a00a	0.16174331
97	0xbfc24f69	-1.5180484
98	0xbe6996eb	-0.22811477
99	0x3d0b89f2	0.0340671
100	0x3e2e2c7a	0.17009154
101	0xbd21822d	-0.039430786
102	0xbf021a93	-0.508218
103	0x3f02e627	0.51132435
104	0x3e4a4b9f	0.1975541
105	0xbeeba688	-0.4602549
106	0x3e6bc768	0.23025286
107	0x3f0a1066	0.5393127
108	0xbf22e169	-0.636252
109	0x3ef338ec	0.47504365
110	0x3e8e4724	0.2778865
111	0x3e89c4aa	0.26907855
112	0xbdcdd25a	-0.10049887
113	0xbe9c5bac	-0.3053869
114	0xbef092af	-0.4698691
115	0x3cdcde5d	0.0269615
116	0xbe975fdb	-0.2956532
117	0xbe293df7	-0.16527544
118	0xbcbdafaa	-0.023155052
119	0x3f00e85f	0.5035457
120	0x3e21230e	0.15736029
121	0x3f8525bc	1.0402141
122	0x3e4b6af0	0.19865012
123	0x3ea32e7e	0.31871408
124	0x3d64229b	0.055697065
125	0x3eaa0021	0.33203223
126	0x3e8343d2	0.2563768
127	0x3fa4dee5	1.2880522
128	0x3e864a02	0.26228338
129	0xbf36a7e9	-0.7134996
130	0x3f0522fd	0.5200651
131	0x3ea643ab	0.32473502
132	0x3ed6e111	0.41968587
133	0x3eb6cf50	0.35705042
134	0x3eb97d99	0.36228636
135	0xbe46bd4b	-0.19408147
136	0x3fad2833	1.3527893
137	0x3e902038	0.2814958
138	0xbf3bb793	-0.7332699
139	0x3ce8ac40	0.028402448
140	0xbe4d4a65	-0.2004791
141	0x3ec51559	0.3849285
142	0xbd75e35e	-0.060031287
143	0x3edec86e	0.4351229
144	0xbf00ce5d	-0.50314885
145	0x3c8b680f	0.017017392
146	0xbe1df273	-0.15424518
147	0xbd8e40d3	-0.06945958
148	0x3fbb9ee3	1.4657863
149	0x3e88c68a	0.26713973
150	0x3ed1b19f	0.40955827
151	0xbf1fcece	-0.62424934
152	0xbea1b02f	-0.3157973
153	0xbf547236	-0.8298677
154	0xbd9e915d	-0.077425696
155	0xbe29232d	-0.16517325
156	0xbee9a2fc	-0.4563216
157	0xbef54153	-0.479014
158	0x3ece129f	0.40248582
159	0x3e887d26	0.2665798
160	0x3d7b0f14	0.061293676
161	0x3ec26b79	0.3797262
162	0x3efd2465	0.4944183
163	0x3d07bc67	0.03313866
164	0x3e10a0ae	0.14123794
165	0xbf49ad2a	-0.7877985
166	0x3ec14c33	0.37753448
167	0x3eb05d22	0.34446055
168	0xbe8d7830	-0.27630758
169	0xbf1e8326	-0.61918867
170	0xbe0b6b6b	-0.13615195
171	0x3f01eaab	0.507487
172	0x3f93f1b5	1.1558138
173	0x3ec2f687	0.3807871
174	0x3ef49541	0.47770122
175	0xbf54436f	-0.82915395
176	0xbeb24f1f	-0.3482599
177	0x3ea798d9	0.327338
178	0xbce0c6bf	-0.02743852
179	0x3ea822c9	0.3283904
180	0xbf1966e1	-0.59922606
181	0xbf1f1d97	-0.62154526
182	0xbedbd451	-0.42935422
183	0xbf099c41	-0.5375405
184	0xbca87aa3	-0.02056629
185	0xbe88eb7c	-0.2674216
186	0xbef994c5	-0.48746315
187	0xbf63155f	-0.88704485
188	0xbe5dad1a	-0.21648064
189	0xbe8d069a	-0.275441
190	0x3fc3a121	1.5283548
191	0x3ea46b08	0.32112908
192	0xbe5c2662	-0.21499017
193	0x3d9a3ff4	0.07531729
194	0x3e9342cd	0.28761902
195	0x3efc8690	0.49321413
196	0x3efd03c2	0.4941693
197	0x3dcefbc7	0.101066165
198	0x3e73e487	0.23817645
199	0x3e949bec	0.2902521
200	0x3ed6d80b	0.41961703
201	0xbd1f26cf	-0.03885537
202	0x3e153519	0.14571036
203	0xbeb7a334	-0.35866702
204	0xbeb1f544	-0.34757435
205	0x3e00aec8	0.12566674
206	0xbea4d67a	-0.32194883
207	0x3f25e30a	0.6479956
208	0x3f5997b9	0.84997135
209	0x3ea9cd05	0.3316423
210	0x3f614412	0.8799449
211	0x3f2c55a6	0.6731819
212	0x3eafc920	0.34333134
213	0x3eb6db18	0.3571403
214	0x3dc9941b	0.09842702
215	0x3e52d6f0	0.20589805
216	0xbf244d63	-0.6418058
217	0xbe8e41ba	-0.2778452
218	0xbef36b82	-0.4754296
219	0x3ddd74b9	0.10813279
220	0xbd87438d	-0.06604681
221	0xbeb660d7	-0.35620758
222	0xbf1892b9	-0.5959888
223	0x3f27920c	0.65457225
224	0x3e701ca9	0.23448433
225	0xbf04f19e	-0.5193118
226	0xbeaa770a	-0.33293945
227	0xbee56350	-0.44802332
228	0xbe1a973c	-0.15096754
229	0x3f9ceff0	1.2260723
230	0x3e7702b9	0.24122132
231	0x3f2605a8	0.6485238
232	0xbe729c50	-0.23692441
233	0x3e0058f9	0.1253394
234	0xbf47e79a	-0.7808777
235	0xbb662c68	-0.0035121683
236	0x3e1776fa	0.1479148
237	0x3e93bbfa	0.28854352
238	0x3e2026f3	0.15639858
239	0xbef7e3bd	-0.48415938
240	0x3f590890	0.8477869
241	0x3f5d02de	0.863325
242	0x3f177cc8	0.59174776
243	0xbd568809	-0.052375827
244	0xbe836377	-0.25661823
245	0x3ebd004d	0.36914292
246	0x3ea1f178	0.3162954
247	0x3e54a55e	0.20766208
248	0x3e03e601	0.12880708
249	0xbe7a8986	-0.24466524
250	0x3b7aa469	0.0038244969
251	0xbea86b59	-0.328944
252	0xbea5c417	-0.32376167
253	0xbcf5716a	-0.029961307
254	0xbe569dfd	-0.20958705
255	0xbeb14219	-0.3462074

fc1.0.0.bias f4 [128]
0	0x3f002e23	0.500704
1	0x3db60f8f	0.08889686
2	0xbee2a131	-0.44263604
3	0x3f0c708a	0.5485922
4	0x3edbd7b6	0.42938012
5	0x3e6922ef	0.22767232
6	0x3f2eef3d	0.683338
7	0x3d20a480	0.03921938
8	0x3ee4d074	0.44690287
9	0x3eae1e18	0.34007335
10	0xbed698e0	-0.4191351
11	0x3d757d37	0.059933867
12	0xbf08b17d	-0.53395826
13	0x3e9961f0	0.29957533
14	0xbf6dd413	-0.92901725
15	0xbf62a186	-0.88527715
16	0x3f098b7c	0.5372846
17	0xbf0cdb27	-0.550219
18	0xbe9bc8e7	-0.30426714
19	0x3ea9c83f	0.33160588
20	0xbe977f87	-0.29589483
21	0xbe02b887	-0.12765704
22	0xbf14c3da	-0.58111346
23	0xbdb4ed9c	-0.08834383
24	0xbde86d01	-0.11348916
25	0x3e97ba1f	0.29634187
26	0xbe6f9d16	-0.23399767
27	0xbeb6bed3	-0.35692462
28	0xbebc1492	-0.36734444
29	0x3f272f43	0.6530649
30	0xbd1e70cf	-0.0386818
31	0xbf8bb086	-1.0913246
32	0xbf2d825d	-0.67777044
33	0x3b08b876	0.00208619
34	0x3e8c451a	0.2739647
35	0x3f0d1938	0.55116606
36	0xbf417968	-0.75575876
37	0x3f0f6d1f	0.5602588
38	0x3e8364dd	0.2566289
39	0xbf4891fd	-0.7834776
40	0x3e22e533	0.15907745
41	0x3f307734	0.6893189
42	0x3df42345	0.1192079
43	0xbf5ec470	-0.8701849
44	0xbe102b4c	-0.14079016
45	0xbe9eff13	-0.3105398
46	0x3f3f5f39	0.74754673
47	0xbf5062f0	-0.81400967
48	0x3ed936f4	0.42424738
49	0xbeeea59e	-0.4661073
50	0xbe9bcfe3	-0.30432042
51	0x3f1985a8	0.5996957
52	0x3ece4e09	0.4029391
53	0xbf4ea30a	-0.8071753
54	0x3ea67d31	0.32517388
55	0xbf7472b6	-0.95487535
56	0x3ecbb054	0.39782965
57	0xbe33185b	-0.1748976
58	0x3cfcd6b8	0.030864105
59	0xbf174b1f	-0.59099
60	0x3dc2b7a0	0.0950768
61	0x3ea01bf2	0.3127132
62	0x3f23a110	0.63917637
63	0xbe958c20	-0.2920847
64	0x3eeb9fa3	0.4602023
65	0x3db366ab	0.08759817
66	0xbd4a3099	-0.049362753
67	0xbf1a7a3a	-0.6034275
68	0x3f1134a1	0.5672093
69	0xbeb4957b	-0.35270295
70	0xbf131204	-0.57449365
71	0x3f08b790	0.53405094
72	0x3e3f63bb	0.18690388
73	0x3f0d6e90	0.5524683
74	0x3e983c22	0.29733378
75	0x3e1d01e7	0.15332757
76	0xbea8f0c8	-0.32996202
77	0xbf0334ac	-0.51252246
78	0x3f32588e	0.69666374
79	0xbf1c38d8	-0.61024237
80	0xbed5d7d3	-0.41766223
81	0x3f0cacf9	0.54951435
82	0x3e5ea033	0.21740799
83	0x3f24d851	0.6439257
84	0x3e5d1755	0.21590932
85	0xbf80b9ba	-1.0056679
86	0x3e384af8	0.17997348
87	0xbeb56377	-0.35427448
88	0x3e48953c	0.19588178
89	0x3e10d0a7	0.14142095
90	0x3e8fca8e	0.28084224
91	0x3dd9dcb3	0.10637798
92	0x3f1aa362	0.6040555
93	0x3e34a096	0.17639384
94	0x3eb76709	0.35820797
95	0xbe8f7022	-0.28015238
96	0x3ed20f19	0.41027144
97	0x3da8e745	0.08247236
98	0xbf286f5d	-0.65794927
99	0xbf1d02ad	-0.6133221
100	0x3f09f16a	0.53883994
101	0xbe2c0d3f	-0.16801928
102	0xbf2786e5	-0.6544021
103	0xbe23a067	-0.15979157
104	0xbefb69a1	-0.49104026
105	0xbeac1bc8	-0.33614945
106	0xbf37dd51	-0.7182208
107	0xbe3b2166	-0.18274459
108	0x3e7ece1f	0.24883316
109	0x3d70fa57	0.058832493
110	0xbe88a5eb	-0.26689085
111	0x3ec0a1ff	0.37623593
112	0xbf060c14	-0.5236218
113	0xbf050869	-0.5196596
114	0x3eb22d8c	0.34800375
115	0x3cd4dd55	0.025984446
116	0x3ccd1a56	0.025036972
117	0x3e7b231f	0.24525116
118	0xbf061165	-0.5237029
119	0xbeea97d6	-0.45818967
120	0x3efacf88	0.4898646
121	0x3f1e69d9	0.6188026
122	0x3ddc86f7	0.1076793
123	0xbc354e62	-0.011066051
124	0xbde32b0b	-0.11092194
125	0x3ee39906	0.44452685
126	0xbf07d751	-0.5306292
127	0x3f1a58b4	0.602916

fc_mu.weight f4 [1, 128]
0	0xbe010b86	-0.12602052
1	0xbd32a6bc	-0.04361604
2	0xbf393c34	-0.7235749
3	0xbf093091	-0.5358973
4	0x3e32f96c	0.1747796
5	0x3d94a07e	0.07257174
6	0x3e82d46f	0.255527
7	0x3e7e25c4	0.24819094
8	0x3e6777fe	0.22604367
9	0xbcca7466	-0.024713706
10	0xbe0f0206	-0.13965616
11	0xbe9fcf8f	-0.31213042
12	0xbe5dd279	-0.2166232
13	0xbe21bc24	-0.15794426
14	0xbead18d3	-0.33808002
15	0xbe99f4f4	-0.30069697
16	0x3e1de7ab	0.15420406
17	0xbe658614	-0.22414428
18	0x3f1d45d6	0.61434686
19	0xbe4563a0	-0.19276285
20	0xbe0c2411	-0.13685633
21	0x3f05a1d7	0.52200073
22	0x3f5bb1fa	0.85818446
23	0x3e940479	0.28909662
24	0xbc99321b	-0.01870065
25	0x3e82efcc	0.25573575
26	0xbd45483c	-0.04816459
27	0xbeb00947	-0.34382078
28	0x3ed5e539	0.41776446
29	0xbe771120	-0.24127626
30	0xbd4c96dd	-0.049948562
31	0x3f0ef483	0.55841845
32	0xbf8009fa	-1.0003045
33	0xbb2778b6	-0.0025554127
34	0x3e9031a2	0.28162867
35	0x3e236f2d	0.15960379
36	0xbed4bbf2	-0.4154964
37	0xbdef295b	-0.1167781
38	0xbe16bcb8	-0.14720428
39	0xbe761a4a	-0.24033466
40	0xbecd2ca8	-0.40073133
41	0x3e199ee6	0.15002021
42	0xbeb2e2d6	-0.34938687
43	0xbe9e8df5	-0.3096768
44	0xbda89a06	-0.08232503
45	0x3f2d5d18	0.67720175
46	0xbdae02f2	-0.084966555
47	0xbeab081c	-0.33404624
48	0xbd486066	-0.048920058
49	0x3efbd2fa	0.491844
50	0x3f150501	0.5821076
51	0xbe3c7efc	-0.18407816
52	0x3e3ee10e	0.18640539
53	0xbf1005ca	-0.56258833
54	0x3e25964e	0.16170618
55	0xbebe3fcf	-0.37158057
56	0x3d8bf6e5	0.06834201
57	0xbe21e665	-0.15810545
58	0x3dd56b4f	0.10420858
59	0xbe42a248	-0.19007218
60	0xbe186ee9	-0.14886059
61	0xbe06f047	-0.13177596
62	0x3e8375fd	0.25675955
63	0x3e8b8ac7	0.27254316
64	0x3d8f6555	0.070017494
65	0xbd863de4	-0.065547734
66	0xbccb8bb9	-0.024846898
67	0x3e9c68b7	0.3054864
68	0xbd5bcf6d	-0.053664614
69	0xbeecd63a	-0.46257192
70	0xbf151f97	-0.5825133
71	0x3e3defd8	0.18548524
72	0xbe2b3d4e	-0.16722605
73	0xbddcc5ab	-0.1077989
74	0x3e6dbb5a	0.23216
75	0xbd8d6752	-0.069044724
76	0x3f2b8083	0.6699297
77	0xbf704cde	-0.9386729
78	0x3eb383ef	0.35061595
79	0x3ea54965	0.32282558
80	0xbe82c162	-0.25538164
81	0x3dfe5cac	0.124200195
82	0x3d84a590	0.06476891
83	0xbe23cce9	-0.15996136
84	0xbcb731c0	-0.02236259
85	0x3efe4807	0.49664328
86	0x3e61f60b	0.22066514
87	0x3ed05653	0.4069086
88	0xbdb09b15	-0.086233296
89	0xbe0ea455	-0.13929875
90	0x3d042523	0.03226198
91	0x3eabeb90	0.33578157
92	0xbd49faba	-0.049311377
93	0x3e8351e7	0.25648424
94	0x3b2430c3	0.0025053478
95	0xbdeab569	-0.114603825
96	0x3e3d69b2	0.18497351
97	0x3e682938	0.22671974
98	0xbe7d7ffa	-0.2475585
99	0xbeb3c129	-0.35108307
100	0x3e1fc2ad	0.15601607
101	0xbefb89c8	-0.49128556
102	0xbe2744ba	-0.16334811
103	0xbf095be5	-0.53655845
104	0x3f1ea242	0.61966336
105	0x3f36473a	0.71202433
106	0xbed1ccd8	-0.40976596
107	0x3d89e9c7	0.067340426
108	0xbef26629	-0.47343567
109	0xbd6e0c2c	-0.058117077
110	0xbdc0ca6f	-0.09413611
111	0x3e489b42	0.19590476
112	0xbd7dfdee	-0.062009744
113	0xbe8a5968	-0.27021337
114	0xbdee92aa	-0.11649068
115	0xbecb4f36	-0.3970887
116	0xbe49e7f3	-0.19717388
117	0x3d5c9b07	0.053858783
118	0x3ef0e471	0.47049287
119	0xbe24699e	-0.16055915
120	0xbd81d7b4	-0.0633997
121	0x3e4cdce6	0.20006141
122	0x3cb21efa	0.021743286
123	0x3bec6e4c	0.007215297
124	0x3d25727f	0.040392395
125	0x3e9850bd	0.29749098
126	0xbe3df72d	-0.18551321
127	0xbe72bc26	-0.23704585

fc_std.weight f4 [1, 128]
0	0xbddd41be	-0.10803555
1	0xbe3b12ff	-0.18268965
2	0xbe45f842	-0.19332984
3	0xbd139530	-0.03603095
4	0xbd749e7e	-0.059721462
5	0xbbce100e	-0.006288535
6	0x3d4f081f	0.050544854
7	0x3c87c68e	0.01657417
8	0x3daebc1b	0.08531972
9	0xbd0c6b41	-0.034281973
10	0x3ce1679d	0.027515227
11	0x3d14e939	0.03635523
12	0xbe34dc22	-0.17662099
13	0x3cee2512	0.02907041
14	0x3aeb1f12	0.0017938337
15	0x3ca5049e	0.020143803
16	0xbe440534	-0.1914261
17	0x3cf63987	0.030056728
18	0x3e7b5e93	0.24547796
19	0xbd8e6bdd	-0.06954167
20	0x3cec99f2	0.028882
21	0x3c1a58c5	0.009420578
22	0x3eee7462	0.46573168
23	0xbd3c4b88	-0.04597047
24	0xbd0f09d6	-0.03492149
25	0x3dfdfb96	0.12401502
26	0x3d31724e	0.0433219
27	0x3d95bc60	0.0731132
28	0x3e153614	0.1457141
29	0xbc3fca15	-0.011705895
30	0xbd945e9c	-0.07244608
31	0x3d88465d	0.06654046
32	0xbbaac0a5	-0.0052109533
33	0xbdcd39d6	-0.10020797
34	0xbc6de9b8	-0.014521055
35	0xbd09a2ec	-0.03360264
36	0xbdffeb73	-0.1249608
37	0xbe1d082c	-0.15335149
38	0xbdd41576	-0.10355656
39	0xbd565106	-0.052323364
40	0xbe73c9d2	-0.23807457
41	0xbe1c0636	-0.15236744
42	0xbe433744	-0.19064051
43	0xbd3e9b00	-0.04653454
44	0xbbb469e9	-0.0055057895
45	0x3e131b29	0.1436583
46	0x3c737aac	0.01486079
47	0x3e1494e0	0.14509916
48	0xbcb50aa8	-0.022099808
49	0x3dba3124	0.09091404
50	0x3e4f315e	0.20233676
51	0xbcb0e332	-0.02159271
52	0x3d5590af	0.052139934
53	0x3d04e19b	0.032441717
54	0xbd3dd986	-0.046350025
55	0xbdb99440	-0.090614796
56	0xbc67edf1	-0.014155851
57	0xbdfa4b4c	-0.12221393
58	0xbdc17b9c	-0.09447405
59	0xbb6b48c3	-0.0035901524
60	0xbd9d49ad	-0.07680068
61	0xbda79a89	-0.08183772
62	0x3dcbd93c	0.099535435
63	0x3d86a25c	0.06573936
64	0xbdf76821	-0.12080408
65	0xbd75675e	-0.05991303
66	0xbc8c5d22	-0.017134253
67	0x3d08a2ba	0.033358313
68	0xbdc755ed	-0.09733186
69	0xbd391c1e	-0.04519283
70	0xbe1da85e	-0.15396258
71	0xbd602de5	-0.05473127
72	0xbdbeae46	-0.09310584
73	0xbdf112b3	-0.11771145
74	0x3b0218f7	0.0019851306
75	0xbd320f3d	-0.043471564
76	0x3d0bbd39	0.034116004
77	0x3d9b5bba	0.07585855
78	0x3d0b9b01	0.03408337
79	0x3d27282a	0.040809788
80	0xbddf0a24	-0.10890606
81	0xbd992870	-0.07478416
82	0xbdc51132	-0.0962242
83	0xbe049585	-0.12947662
84	0xbcb3cdb0	-0.021948665
85	0xbdcb13b1	-0.09915865
86	0xbd91c3e1	-0.07117439
87	0x3c8a51de	0.01688474
88	0x3d5320b3	0.051544856
89	0xbd905e33	-0.07049217
90	0xbc9026c9	-0.01759662
91	0xbd26acc2	-0.0406921
92	0x3c96ed48	0.018423691
93	0x3bfb5d66	0.007671046
94	0xbdae7e89	-0.085202284
95	0xbd0a34f7	-0.033741917
96	0x3cb5fe46	0.022215974
97	0x3bbe25c3	0.0058028414
98	0xbe16ad69	-0.14714588
99	0xbd0037b1	-0.03130311
100	0xbdec3020	-0.115326166
101	0xbd69d10b	-0.057084125
102	0x3dc7c3d5	0.09754149
103	0xbdda71d6	-0.10666244
104	0x3e000a96	0.12504038
105	0x3e9e9f16	0.30980748
106	0xbd36ff31	-0.044676963
107	0x3db41a64	0.08794096
108	0x3d4e2d2f	0.05033606
109	0xbe6e2eb9	-0.23260011
110	0x3caa2e17	0.02077393
111	0xbca65b78	-0.020307288
112	0xbe00dcc9	-0.12584223
113	0x3d638a8d	0.055552054
114	0x3cb1dc51	0.0217115
115	0xbe2ffea5	-0.17186983
116	0xbe290be7	-0.16508447
117	0xbcd88226	-0.026429247
118	0x3dd1777e	0.102278695
119	0xbe750e06	-0.23931131
120	0xbc61a029	-0.013771095
121	0xbdd4ad62	-0.10384633
122	0xbeb21471	-0.3478122
123	0xbd5a9792	-0.053367205
124	0x3d6b5283	0.057451736
125	0xbdd4d5d8	-0.1039235
126	0x3db3bf21	0.08776689
127	0x3d3010cf	0.04298478
