checkpoints/ep-0.pt (torch, 5313 bytes, 4 tensors)

fc1.weight f4 [128, 3]
0.2833457 0.027947633 -0.37215468 -0.35352996 0.020120727 0.50190413 -0.44826305 0.12524042
-0.0024517714 -0.035539843 -0.34344047 0.38259187 -0.19427653 0.04750213 0.11833694 0.14542404
0.4000342 -0.24929352 -0.3950656 -0.27990097 -0.30102903 0.11666709 -0.15978298 0.40138736
0.2043945 -0.3150245 -0.15016042 -0.16777334 -0.018114945 -0.39107662 0.37233937 0.281623
0.43234137 0.55292267 -0.49925816 0.22811025 0.027445894 0.27587613 0.029879564 -0.3650665
0.255043 0.20464481 0.02023711 -0.50439876 -0.3735458 0.53731984 0.26716393 -0.15040226
0.12663104 -0.19198154 -0.0051217196 0.18916024 -0.18827467 0.3434085 0.01276789 0.33779466
-0.43551987 -0.42338875 0.3460225 -0.06764213 -0.40879974 0.09064623 0.40949667 0.38907856
-0.018488392 -0.013806674 0.49031895 0.16531469 0.5532301 0.01849961 0.016508006 -0.0044424115
-0.40396103 0.00068446976 0.38756707 0.23795961 0.4477922 -0.0050294935 -0.42203522 0.26727906
-0.121457346 0.26239666 0.17596082 0.13430418 -0.46342814 -0.14034389 -0.42672837 -0.47885174
0.09305216 0.26501566 0.006618399 0.5146417 -0.16431245 -0.5031234 -0.5682873 0.120915346
-0.5519589 0.12855794 -0.4896673 -0.05435261 0.040104833 -0.3314391 0.2367226 0.15636462
0.18830688 0.03454628 -0.2597903 0.4060359 -0.51612854 0.1980598 0.13311577 0.07550544
0.4601294 0.03902434 0.10221298 0.14695169 0.19037811 0.32857066 -0.50450355 0.45280734
0.01754032 -0.32003582 0.49850664 0.5109995 0.5073881 -0.03349979 0.08233631 -0.30115554
-0.46360764 -0.15734862 -0.11197746 0.5443101 -0.08334825 0.18311943 0.5365769 -0.35761833
-0.4124461 -0.43153426 0.13270076 -0.46993414 0.008573044 0.27075234 -0.15779302 0.30659735
-0.44387475 0.24875475 0.501484 -0.5478118 -0.07890666 0.2683272 0.3261315 -0.19787493
-0.45897183 -0.5024981 -0.32971773 0.18501689 -0.06122422 0.45721313 -0.5412545 0.028080948
0.13832827 -0.14581676 -0.4243588 -0.17194878 -0.48283625 -0.16339584 0.2051584 -0.08998193
0.24253939 -0.28368962 -0.4077262 0.3337431 0.17264494 0.033367712 0.29978454 0.2797773
-0.1689424 -0.1908049 -0.3180882 0.4821871 -0.037461247 -0.370194 0.2723999 0.40447214
-0.30378577 -0.16041782 0.16314633 0.36789846 -0.38179407 0.16052237 -0.30497357 0.49617848
-0.5457283 0.47803408 -0.45676824 0.09195446 -0.37777904 0.32742065 -0.10530875 0.22081834
-0.5521526 0.2221159 -0.16366914 -0.45442134 -0.015114083 0.13755281 -0.15938647 0.0075254506
-0.4559552 -0.1825731 -0.51123255 0.3609017 0.5239357 0.30761957 0.14846744 0.1706744
0.29625398 -0.29315162 -0.24109364 -0.53547895 0.030154523 -0.38395435 0.26795027 -0.01313528
-0.3422697 -0.47843635 -0.16420281 -0.29575247 0.5430018 -0.16987334 -0.5151793 0.41309658
-0.20535159 -0.11808854 0.21293293 -0.37701005 -0.011124956 0.37613204 -0.04082007 0.4656695
0.5092424 0.008126228 -0.44748986 -0.017385187 0.402425 0.25539792 0.22032224 -0.08653315
-0.33517116 0.11968585 -0.22097361 0.1731778 -0.389386 0.26946944 0.5738543 -0.0667498
00000000: b012 913e 6ff2 e43c 0f8b bebe e101 b5be
00000010: 39d4 a43c ca7c 003f bc82 e5be 063f 003e
00000020: e6ad 20bb 3a92 11bd 6ed7 afbe 15e3 c33e
00000030: 6df0 46be 9891 423d a35a f23d 0aea 143e
00000040: 48d1 cc3e cd46 7fbe 0a46 cabe 2e4f 8fbe
00000050: 7a20 9abe 28ef ee3d 269e 23be a582 cd3e
00000060: cb4c 513e e44a a1be a7c3 19be c6cc 2bbe
00000070: cb65 94bc 323b c8be 44a3 be3e e430 903e
00000080: d95b dd3e 578c 0d3f c49e ffbe bc95 693e
00000090: 36d6 e03c a33f 8d3e fdc5 f43c ffe9 babe
000000a0: ff94 823e 698e 513e 4cc8 a53c 4720 01bf
000000b0: 6541 bfbe cb8d 093f b6c9 883e 0d03 1abe
000000c0: 91ab 013e cf96 44be 19d4 a7bb 39b3 413e
000000d0: 13cb 40be 3dd3 af3e 6930 513c 6cf3 ac3e
000000e0: 76fc debe 69c6 d8be dc29 b13e f587 8abd
000000f0: 334e d1be bba4 b93d 8ca9 d13e 4e35 c73e
00000100: f874 97bc 6335 62bc 160b fb3e 4148 293e
00000110: 7da0 0d3f 7e8c 973c cc3b 873c a691 91bb
00000120: fbd3 cebe fd6d 333a 316f c63e afab 733e
00000130: 0545 e53e 73ce a4bb 0015 d8be cdd8 883e
00000140: a1be f8bd db58 863e 132f 343e 0987 093e
00000150: 7446 edbe 4fb6 0fbe 247c dabe 0e2c f5be
00000160: 2292 be3d 22b0 873e 28df d83b 8fbf 033f
00000170: 8641 28be b2cc 00bf 477b 11bf 77a2 f73d
00000180: 2e4d 0dbf b1a4 033e acb5 fabe d8a0 5ebd
00000190: f744 243d 63b2 a9be 6967 723e 0c1e 203e
000001a0: 85d3 403e 6680 0d3d 3c03 85be f0e3 cf3e
000001b0: 0021 04bf 30d0 4a3e 804f 083e 99a2 9a3d
000001c0: 1596 eb3e fdd7 1f3d 0a55 d13d 817a 163e
000001d0: 7bf2 423e 6a3a a83e 2527 01bf 5dd6 e73e
000001e0: b8b0 8f3c bcdb a3be 433c ff3e ddd0 023f
000001f0: 30e4 013f 1337 09bd f09f a83d 0f31 9abe
00000200: fb5d edbe ff1f 21be 7054 e5bd e857 0b3f
00000210: 7db2 aabd a983 3b3e 1b5d 093f c019 b7be
00000220: 232c d3be 0ff2 dcbe b5e2 073e 359b f0be
00000230: f475 0c3c 0da0 8a3e 7e94 21be 54fa 9c3e
00000240: 8d43 e3be 91b9 7e3e 4161 003f 653d 0cbf
00000250: d199 a1bd 2f62 893e b5fa a63e ba9f 4abe
00000260: 5bfe eabe b7a3 00bf c3d0 a8be 1175 3d3e
00000270: 3fc6 7abd d717 ea3e a88f 0abf 040a e63c
00000280: eda5 0d3e fd50 15be 8e45 d9be 5713 30be
00000290: 5036 f7be 3d51 27be 0b15 523e 7248 b8bd
000002a0: 3f5c 783e c43f 91be 7dc1 d0be 60e0 aa3e
000002b0: d6c9 303e 95ac 083d 5c7d 993e f83e 8f3e
000002c0: 3dff 2cbe 5c62 43be 75dc a2be 3ae1 f63e
000002d0: f770 19bd 118a bdbe 0078 8b3e f916 cf3e
000002e0: cf89 9bbe 9244 24be d50f 273e 305d bc3e
000002f0: 837a c3be fa5f 243e 7f25 9cbe 1b0b fe3e
00000300: dab4 0bbf e2c0 f43e 87dd e9be 9f52 bc3d
00000310: 416c c1be aea3 a73e 1dac d7bd 341e 623e
00000320: df59 0dbf 5a72 633e e298 27be eaa9 e8be
00000330: 0fa1 77bc a5da 0c3e 3536 23be 0e98 f63b
00000340: f672 e9be 71f4 3abe 23e0 02bf 1cc8 b83e
00000350: a620 063f 5080 9d3e d907 183e 45c5 2e3e
00000360: 9aae 973e f817 96be 40e1 76be 2615 09bf
00000370: 9e06 f73c aa95 c4be c730 893e 5c35 57bc
00000380: f93d afbe 9cf5 f4be c824 28be de6c 97be
00000390: 2a02 0b3f 47f3 2dbe cae2 03bf 6581 d33e
000003a0: b047 52be 68d8 f1bd 170b 5a3e 7607 c1be
000003b0: 7345 36bc 6194 c03e f232 27bd 3c6c ee3e
000003c0: b65d 023f df23 053c 641d e5be 616b 8ebc
000003d0: a60a ce3e 84c3 823e 279c 613e 4b38 b1bd
000003e0: 8e9b abbe db1d f53d e846 62be 8555 313e
000003f0: 9a5d c7be e6f7 893e 1ee8 123f 1fb4 88bd

fc1.bias f4 [128]
0.46910143 -0.03211832 0.25626478 0.3016658 -0.28551996 0.35081136 -0.26957935 -0.06177014
-0.21349151 -0.4109078 -0.44347286 -0.12712444 0.50627065 -0.37796578 0.4178783 -0.5506488
0.51740295 0.036960676 -0.2971878 -0.016103037 -0.55402976 0.3547775 -0.31044388 0.41601416
-0.0019498956 0.486363 0.19884565 -0.5627156 -0.35057494 -0.040854618 0.48384082 -0.1455469
-0.0042578904 0.2570509 -0.11309319 0.25552127 0.38468665 -0.21236801 0.42413735 0.23201026
-0.54814124 -0.54024494 -0.42497587 0.3213534 -0.27953392 0.044741265 0.10863701 -0.31147742
-0.46191582 0.11564668 -0.57457423 0.38516727 0.32354704 -0.5426757 0.3597774 -0.42649072
0.5465659 0.55336195 0.42379573 0.15225244 -0.33225578 -0.26482138 0.44860718 -0.44490126
-0.5551841 0.32546106 -0.56596327 0.2781111 0.18280497 -0.43503416 0.21838632 0.12713717
-0.41732886 0.011609006 0.112812385 -0.16399978 0.47389126 0.24774982 -0.25244656 -0.5373229
0.3579838 0.5143666 0.57144016 0.15153699 0.55838084 0.49646616 -0.27638164 0.39222255
-0.2229588 0.5144617 0.4068696 0.5070327 -0.08793932 0.18866952 0.29160312 -0.35297537
0.45138937 0.32315466 0.47564754 0.18298289 0.55088073 -0.085779995 -0.020184252 0.41635624
0.19506149 -0.06918299 0.41218355 0.49295545 -0.19143665 0.2206451 0.3677515 0.08302814
0.17623523 0.12524158 0.41994137 -0.19023441 -0.2748167 -0.32629108 -0.44480085 0.18321007
-0.21906349 -0.060216613 -0.41992792 -0.375035 -0.23437537 0.07592535 -0.012580065 -0.038885523
00000000: 102e f03e 808e 03bd 2335 833e f173 9a3e
00000010: ac2f 92be 8c9d b33e 4e06 8abe b002 7dbd
00000020: 859d 5abe 8262 d2be e00e e3be e92c 02be
00000030: f49a 013f bb84 c1be 25f4 d53e 52f7 0cbf
00000040: 8574 043f 1464 173d 0029 98be 84ea 83bc
00000050: e5d4 0dbf 65a5 b53e 80f2 9ebe cfff d43e
00000060: a493 ffba 9204 f93e 329e 4b3e 210e 10bf
00000070: 8f7e b3be 2c57 27bd fcb9 f73e 3f0a 15be
00000080: c685 8bbb 2d9c 833e 679d e7bd afd3 823e
00000090: a6f5 c43e 0077 59be 8828 d93e 1994 6d3e
000000a0: fc52 0cbf 7e4d 0abf 7096 d9be 6f88 a43e
000000b0: 121f 8fbe 9e42 373d 157d de3d f879 9fbe
000000c0: 3b80 ecbe 2bd8 ec3d 4c17 13bf a534 c53e
000000d0: f5a7 a53e cbec 0abf be34 b83e fe5c dabe
000000e0: beeb 0b3f 21a9 0d3f c1fb d83e 10e8 1b3e
000000f0: 6e1d aabe ab96 87be d7af e53e 19ca e3be
00000100: 8c20 0ebf d5a2 a63e f8e2 10bf 9464 8e3e
00000110: 3a31 3b3e ccbc debe aaa0 5f3e 3f30 023e
00000120: 21ac d5be b333 3e3c 2e0a e73d 8fef 27be
00000130: e0a1 f23e 21b2 7d3e ad40 81be fe8d 09bf
00000140: a749 b73e 88ad 033f e749 123f 832c 1b3e
00000150: 0cf2 0e3f d030 fe3e e581 8dbe 65d1 c83e
00000160: 504f 64be c3b3 033f 3651 d03e e5cc 013f
00000170: 8819 b4bd 9532 413e 014d 953e 30b9 b4be
00000180: 821c e73e 8774 a53e 1388 f33e de5f 3b3e
00000190: 8506 0d3f 6cad afbd 7259 a5bc a52c d53e
000001a0: 33be 473e d0af 8dbd b909 d33e a864 fc3e
000001b0: f807 44be caf0 613e ed49 bc3e a80a aa3d
000001c0: 0277 343e 543f 003e 8e02 d73e cfcc 42be
000001d0: c6b4 8cbe a00f a7be f0bc e3be 6c9b 3b3e
000001e0: 2e52 60be b2a5 76bd cb00 d7be 9604 c0be
000001f0: 1900 70be c07e 9b3d 9e1c 4ebc 6d46 1fbd

fc_mu.weight f4 [1, 128]
0.008332938 0.020650186 0.06679156 0.04273901 0.012938018 -0.009729853 0.026136998 -0.04467943
0.078024775 -0.0127168 -0.031737946 -0.062684365 0.070710495 0.0839384 -0.070344605 -0.07002589
0.022774756 -0.07824482 0.026469106 0.050933033 0.087214746 -0.008909612 -0.054843258 0.08070201
-0.02515461 0.06973931 0.047486115 0.014657494 -0.050366875 0.028165653 0.035856273 -0.012238012
-0.051778898 0.0556219 -0.08618846 0.0087516345 0.07623083 -0.033568256 -0.0066259904 -0.050856408
-0.035975244 0.063186005 0.00037480137 -0.0016922697 0.04018862 -0.072106704 -0.084239356 0.039916858
-0.072048455 -0.02525848 0.0807737 0.056369156 -0.014209936 0.0026331982 -0.029472817 0.08075356
-0.017887797 -0.08601866 0.026864242 -0.014912071 0.021937635 -0.030019376 0.06776487 -0.041084073
0.013925719 -0.03156208 0.03929952 -0.0038219078 0.061537273 -0.07828986 0.042333644 0.07752031
0.052814793 -0.06811823 0.0312374 -0.013118575 -0.046153337 0.078606084 0.036810342 0.047027778
-0.00957688 -0.04025902 0.085601084 -0.016341629 -0.007081197 0.069813386 0.059678808 0.00355594
0.018385846 -0.021768888 -0.0055549755 0.06647951 0.040784463 -0.052803203 -0.07759421 -0.0800696
-0.012921496 -0.025181867 0.009282853 0.01949042 -0.0020654905 0.06898429 0.07270569 -0.027281402
0.026454186 0.048649263 -0.041008 0.07643822 -0.071741365 -0.015490221 0.07527339 0.03804263
0.05609521 -0.08750397 -0.08602072 -0.07094635 0.08735763 -0.034512557 -0.011700628 0.04868173
0.0052379575 0.052959654 0.06808074 0.06524914 -0.045769222 0.025152544 -0.06550207 -0.00032890346
00000000: e086 083c 942a a93c 03ca 883d 1a0f 2f3d
00000010: fbf9 533c f669 1fbc 421d d63c c701 37bd
00000020: 74cb 9f3d 205a 50bc a6ff 01bd a960 80bd
00000030: aad0 903d e5e7 ab3d d510 90bd bc69 8fbd
00000040: 2092 ba3c d23e a0bd bdd5 d83c 289f 503d
00000050: a59d b23d 9ff9 11bc 53a3 60bd 1847 a53d
00000060: 0a11 cebc 7cd3 8e3d cd80 423d fc25 703c
00000070: 7f4d 4ebd a8bb e63c 07de 123d f181 48bc
00000080: 1c16 54bd cad3 633d 9383 b0bd 0463 0f3c
00000090: e91e 9c3d de7e 09bd d61e d9bb cf4e 50bd
000000a0: c75a 13bd aa67 813d fd80 c439 26cf ddba
000000b0: d39c 243d aeac 93bd af85 acbd dc7f 233d
000000c0: 248e 93bd dfea cebc ae6c a53d 58e3 663d
000000d0: cbd0 68bc bc91 2c3b fa70 f1bc 1f62 a53d
000000e0: 6e89 92bc 8d2a b0bd 6612 dc3c c251 74bc
000000f0: 8eb6 b33c 32eb f5bc 4fc8 8a3d c647 28bd
00000100: b328 643c 3d47 01bd 89f8 203d f978 7abb
00000110: 820e 7c3d 6f56 a0bd 0b66 2d3d f8c2 9e3d
00000120: 5354 583d 9281 8bbd 93e5 ff3c 4bef 56bc
00000130: 480b 3dbd 3afc a03d 71c6 163d 33a0 403d
00000140: 59e8 1cbc a4e6 24bd 9f4f af3d e1de 85bc
00000150: 6309 e8bb 52fa 8e3d c471 743d c60a 693b
00000160: ea9d 963c ab54 b2bc 8306 b6bb 6926 883d
00000170: 9c0d 273d 2c48 58bd b7e9 9ebd 88fb a3bd
00000180: afb4 53bc 344a cebc 1c17 183c 60aa 9f3c
00000190: 2e5d 07bb a347 8d3d b9e6 943d 3f7d dfbc
000001a0: 73b6 d83c 7344 473d 01f8 27bd a48b 9c3d
000001b0: 23ed 92bd b2ca 7dbc ef28 9a3d 97d2 1b3d
000001c0: 17c4 653d 4835 b3bd a22b b0bd 524c 91bd
000001d0: 8fe8 b23d 0a5d 0dbd feb3 3fbc 7e66 473d
000001e0: 2ca3 ab3b 39ec 583d ea6d 8b3d 57a1 853d
000001f0: 8278 3bbd b50c ce3c f325 86bd ad70 acb9

fc_std.weight f4 [1, 128]
0.017601345 0.056478135 0.006518347 0.06824229 -0.0071644266 -0.06839039 0.046553764 0.033232495
-0.080878586 0.018780973 -0.078375906 -0.052556887 0.010086636 -0.025300257 0.03181694 -0.040916298
-0.033555295 -0.06791541 0.021976357 0.015844086 0.019774143 0.03240495 0.031976603 -0.0021087439
0.07449986 0.010342489 0.020738842 0.085414 -0.02868724 -0.08403111 -0.081304125 0.08405333
0.028233415 0.044226743 -0.061671913 0.052729256 -0.08321798 0.08224575 -0.015580415 -0.032056797
0.008951085 -0.026535181 0.047999255 -0.0103213 -0.065165214 -0.035620105 -0.07236894 0.05186906
-0.04777299 -0.07654281 -0.07358839 0.050270356 0.0375067 0.028726522 -0.047424812 0.016250644
0.07965338 0.03973922 -0.020063944 -0.08356093 -0.017557407 -0.07576381 0.042384863 0.044493835
0.049907926 -0.07362336 0.07104239 0.019384304 0.086463004 0.052527584 0.030030357 0.06868243
-0.006444021 0.008708077 0.0060277265 0.04045087 0.07195865 -0.05688405 0.02663919 -0.027510902
-0.0071183075 -0.053789366 0.08427599 0.022636345 0.017156085 0.07676062 0.047518317 0.046361912
-0.011135281 -0.04481427 0.03893141 0.061815716 -0.05609419 -0.00010413433 0.008929959 0.007981054
-0.0137705235 0.04583338 0.06446959 0.08053618 0.033444315 -0.04658762 0.05368218 -0.055348366
-0.017392687 0.08668037 -0.06810119 0.036626287 -0.081689745 0.018479707 0.07560801 -0.06723007
-0.075694315 -0.0072534094 -0.0400826 -0.048872124 -0.042498827 0.0047483062 -0.06686626 -0.031046232
-0.0036064847 0.03781232 0.084723994 0.014684077 -0.002386028 0.07103948 0.04688078 -0.043966908
00000000: b230 903c 9e55 673d dc97 d53b 9dc2 8b3d
00000010: 91c3 eabb 4310 8cbd 29af 3e3d cc1e 083d
00000020: aca3 a5bd 8eda 993c 8c83 a0bd e445 57bd
00000030: 6b42 253c 7c42 cfbc 7b52 023d d997 27bd
00000040: 4771 09bd 3c17 8bbd c307 b43c 75cb 813c
00000050: 62fd a13c 0ebb 043d e6f9 023d da32 0abb
00000060: 6293 983d 8b73 293c 81e4 a93c 89ed ae3d
00000070: 8101 ebbc 8118 acbd c782 a6bd 2724 ac3d
00000080: c349 e73c 1a27 353d b09b 7cbd a2fa 573d
00000090: 306e aabd 7670 a83d ff44 7fbc fd4d 03bd
000000a0: 92a7 123c 4f60 d9bc de9a 443d ab1a 29bc
000000b0: 5775 85bd 63e6 11bd 2b36 94bd a774 543d
000000c0: 9cad 43bd 7ac2 9cbd 83b5 96bd 4ae8 4d3d
000000d0: a0a0 193d e253 eb3c 8540 42bd 1220 853c
000000e0: 5021 a33d 98c5 223d 245d a4bc fe21 abbd
000000f0: 8dd4 8fbc 0e2a 9bbd c09b 2d3d 2b3f 363d
00000100: 416c 4c3d d8c7 96bd ac7e 913d d5cb 9e3c
00000110: 8413 b13d 2a27 573d 3902 f63c 60a9 8c3d
00000120: 5e28 d3bb 52ac 0e3c 3c84 c53b d0af 253d
00000130: 0f5f 933d 40ff 68bd 6e3a da3c 8b5e e1bc
00000140: b140 e9bb 3d52 5cbd e498 ac3d db6f b93c
00000150: eb8a 8c3c ac34 9d3d 91a2 423d fde5 3d3d
00000160: c170 36bc 2b8f 37bd 8b76 1f3d 7a32 7d3d
00000170: 05c3 65bd b162 dab8 f64e 123c f7c2 023c
00000180: c39d 61bc c8bb 3b3d a208 843d 27f0 a43d
00000190: e8fc 083d a9d2 3ebd d8e1 5b3d f8b4 62bd
000001a0: 1c7b 8ebc 7a85 b13d a378 8bbd 7205 163d
000001b0: f44c a7bd c162 973c 5fd8 9a3d ebaf 89bd
000001c0: 9f05 9bbd 02ae edbb a72d 24bd 232e 48bd
000001d0: 4013 2ebd ae97 9b3b 2df1 88bd ab54 febc
000001e0: c65a 6cbb 17e1 1a3d c683 ad3d 7c95 703c
000001f0: e85e 1cbb 267d 913d 1006 403d a516 34bd
