checkpoints/ep-1000.pt (torch, 5313 bytes, 4 tensors)

fc1.weight f4 [128, 3]
0.15896417 -0.57283086 -0.19181137 0.03481415 1.3277519 0.31585607 -0.031485792 -1.189359
-0.25830454 0.059347987 -0.15379074 0.3445896 0.11804366 1.2980201 0.26685166 0.16182682
0.4140923 -0.213238 -0.757272 -0.30867165 -0.24474625 0.0805744 -0.55610234 0.19467987
0.4822453 -0.8904061 -0.2413289 -0.1461744 -0.08562553 -0.17847499 0.5574383 1.6018751
0.389642 0.17383374 -0.6963293 0.3563265 0.0076513677 0.2372732 0.042390794 0.15220231
0.6142102 0.2849216 -0.069001906 -0.34991604 -0.40498105 0.6937875 0.8654917 0.20706551
0.31681734 -0.43245625 -0.14527273 0.030418415 -0.86845136 0.30030912 0.029712336 0.075673535
-0.31848687 -0.80645096 0.050543085 -0.096686214 -0.117434055 0.552433 0.3529148 0.30743018
0.26471788 -0.08195231 0.46802878 1.4425237 0.5915805 -0.08295774 -0.67711544 -0.05245253
-0.3238177 0.17345138 0.30496454 0.21462022 0.46922174 -0.08545667 -0.04325368 -0.7733542
-0.2773353 0.043673884 0.22352508 0.40827265 -0.9411649 -0.52187335 -0.29086667 0.0016873035
1.2244214 0.26232207 0.19645683 0.36031204 -0.20302312 -0.43225977 -0.54503435 0.2081911
-0.38417643 0.30621052 -0.47867715 -0.012063205 -1.0822415 -0.21768162 0.38627347 0.68873185
0.2922607 0.20096835 0.060674578 0.28221646 -0.62478036 0.28738743 0.24600047 0.34661284
0.81457794 0.16919205 0.112516694 0.42565718 0.09936112 -0.061273985 -1.3945509 0.28031838
0.055314727 0.95227647 0.42257228 0.69949114 0.82997364 -0.1824296 0.6270216 -1.0671024
-0.3075588 -0.211527 -0.93274844 0.11292116 0.04355178 1.2651471 0.42871824 -0.1282275
-1.2063966 -0.33344555 -0.15736102 -1.2729467 0.030984458 -0.028757526 0.73398113 0.32168496
-0.595213 0.2863175 0.47410583 -0.6081375 -1.011699 0.14020057 0.70307195 -1.0600785
-0.33886677 -0.16943246 -1.2739336 0.16889602 -0.1679752 0.47917852 -0.4303712 0.3818927
0.27701643 -0.15657297 -0.47355205 -1.0462412 -0.5181968 -0.018555384 0.18193045 -0.07588872
0.1526115 -0.25544053 -0.4096 0.27290896 0.24937741 -0.0057998737 0.28796837 0.17578888
-0.14185637 -0.071064025 -1.1269523 0.37729722 -0.07588453 -0.11924668 0.33560044 0.5013393
-1.0888982 -0.2718721 0.11386836 0.048188813 -0.3375251 0.0233775 1.0623765 0.36507478
-0.39966157 0.47952127 -0.16587237 -0.19559938 -1.132839 0.17076017 -0.106849566 -0.033447992
-0.4497466 -0.07829902 -1.4746667 -0.34185377 -0.08171073 -1.0171773 -0.14870349 0.36759987
-1.8024329 -0.42460325 -0.18748814 1.5021967 0.33620197 0.26114473 0.11171765 0.19017027
0.65580493 -0.8135951 -0.29969025 -0.2977241 -0.14338708 -0.38538802 0.10064487 -0.8950552
-0.28969598 -0.048280057 -1.3570223 -0.2892385 0.3464689 -0.06820686 -0.44314566 0.8296314
-0.009225304 -0.11159794 0.45346814 -1.1389625 -0.27194706 0.042029824 0.6924327 0.52343255
0.14246215 -0.56173366 -0.3090654 -0.1802899 0.9829427 0.22638421 0.3022285 -0.5223184
-0.25479096 0.01226986 -1.1308613 0.0035875665 -0.45289698 1.5363574 0.37816906 -0.11347222
00000000: 81c7 223e 0ba5 12bf 336a 44be 4899 0e3d
00000010: c6f3 a93f e3b7 a13e 3ff7 00bd ea3c 98bf
00000020: 7e40 84be e016 733d 527b 1dbe 0c6e b03e
00000030: e0c0 f13d 8625 a63f c8a0 883e eeb5 253e
00000040: e803 d43e 105b 5abe 94dc 41bf 360a 9ebe
00000050: c39e 7abe 3104 a53d b95c 0ebf 295a 473e
00000060: dbe8 f63e a7f1 63bf ec1e 77be beae 15be
00000070: 705c afbd 26c2 36be 47b4 0e3f 3e0a cd3f
00000080: 287f c73e 7901 323e a342 32bf 6d70 b63e
00000090: 53b8 fa3b bff7 723e f8a1 2d3d ecda 1b3e
000000a0: e13c 1d3f 3ee1 913e df50 8dbd 3228 b3be
000000b0: ad59 cfbe 0f9c 313f dd90 5d3f fb08 543e
000000c0: e235 a23e e86a ddbe 60c2 14be 0a30 f93c
000000d0: d452 5ebf 1ec2 993e 4967 f33c bafa 9a3d
000000e0: b610 a3be 9273 4ebf 4406 4f3d 6c03 c6bd
000000f0: 4481 f0bd 406c 0d3f 40b1 b43e 7d67 9d3e
00000100: 1a89 873e 9dd6 a7bd 78a1 ef3e 9ea4 b83f
00000110: d271 173f bfe5 a9bd 7057 2dbf 77d8 56bd
00000120: 6fcb a5be 3d9d 313e 5024 9c3e 67c5 5b3e
00000130: d53d f03e e803 afbd c52a 31bd 8afa 45bf
00000140: e4fe 8dbe 63e3 323d c2e3 643e 1d09 d13e
00000150: 2ff0 70bf 7e99 05bf 7aec 94be 8328 dd3a
00000160: d7b9 9c3f 144f 863e fb2b 493e d27a b83e
00000170: 4be5 4fbe 2751 ddbe 5f87 0bbf 0c30 553e
00000180: c6b2 c4be a0c7 9c3e 2c15 f5be c0a4 45bc
00000190: e486 8abf eee7 5ebe a3c5 c53e bb50 303f
000001a0: 32a3 953e a6ca 4d3e e885 783d ad7e 903e
000001b0: 9bf1 1fbf 7224 933e 8ce7 7b3e 3d77 b13e
000001c0: 2e88 503f ae40 2d3e 276f e63d bdef d93e
000001d0: d87d cb3d 6efa 7abd a580 b2bf e485 8f3e
000001e0: b291 623d 64c8 733f 655b d83e da11 333f
000001f0: 2779 543f d3ce 3abe 7d84 203f d096 88bf
00000200: 5978 9dbe 899a 58be 9ac8 6ebf 3643 e73d
00000210: 5a63 323d 57f0 a13f f580 db3e 124e 03be
00000220: 346b 9abf 60b9 aabe 3f23 21be ebef a2bf
00000230: 1ed3 fd3c e794 ebbc 30e6 3b3f e4b3 a43e
00000240: e15f 18bf 3598 923e 00be f23e e6ae 1bbf
00000250: 5a7f 81bf bd90 0f3e 86fc 333f a7b0 87bf
00000260: f27f adbe b47f 2dbe 4210 a3bf 14f3 2c3e
00000270: b101 2cbe e356 f53e 9d59 dcbe 7187 c33e
00000280: 19d5 8d3e aa54 20be 6a75 f2be 3beb 85bf
00000290: 8ca8 04bf 7601 98bc fa4b 3a3e 8c6b 9bbd
000002a0: 3046 1c3e 1ac9 82be 17b7 d1be b9ba 8b3e
000002b0: cb5c 7f3e de0c bebb 9770 933e 0002 343e
000002c0: cc42 11be 048a 91bd f93f 90bf 1a2d c13e
000002d0: 5969 9bbd 9a37 f4bd d2d3 ab3e c657 003f
000002e0: 0461 8bbf d232 8bbe d133 e93d a261 453d
000002f0: 17d0 acbe 2c82 bf3c f4fb 873f 15eb ba3e
00000300: 71a0 ccbe d083 f53e 72da 29be 344b 48be
00000310: de00 91bf c1db 2e3e f2d3 dabd c300 09bd
00000320: 3045 e6be 3d5b a0bd e1c1 bcbf 7507 afbe
00000330: f557 a7bd de32 82bf ba45 18be 0d36 bc3e
00000340: 1fb6 e6bf 9965 d9be e4fc 3fbe fb47 c03f
00000350: aa22 ac3e c3b4 853e 39cc e43d ffbb 423e
00000360: d5e2 273f c547 50bf 0071 99be 4b6f 98be
00000370: 10d4 12be 9451 c5be e61e ce3d 5622 65bf
00000380: 0853 94be 4fc1 45bd e8b2 adbf 1217 94be
00000390: 5f64 b13e 0ab0 8bbd fde3 e2be b962 543f
000003a0: bb25 17bc 768d e4bd fa2c e83e 86c9 91bf
000003b0: a53c 8bbe 7727 2c3d 4543 313f adff 053f
000003c0: 99e1 113e c7cd 0fbf d23d 9ebe ea9d 38be
000003d0: 22a2 7b3f 43d1 673e b2bd 9a3e a9b6 05bf
000003e0: f673 82be 8607 493c 10c0 90bf 611d 6b3b
000003f0: 1de2 e7be 5ca7 c43f 609f c13e 2064 e8bd

fc1.bias f4 [128]
0.19672051 -0.03788929 -0.05030347 0.24275438 -0.11919215 0.4338603 -0.2657693 -0.11876402
-0.45089072 -0.73275274 -0.4813595 -0.22129047 0.17278151 -0.52794653 0.48717213 -0.586205
0.36599767 -0.09093669 -0.568212 -0.319457 -0.7331154 -0.11031091 -0.3982312 0.11057315
-0.21989714 0.17010093 -0.020728571 -0.27751485 -0.1737555 -0.00019046816 0.39081475 -0.4129638
0.023552459 0.041742858 -0.03358381 0.2142787 0.3574307 -0.07972144 0.48135704 0.11625216
-0.05859183 -0.6981124 -0.58107865 0.23078276 -0.077374175 0.038879473 0.08003209 0.027542494
-0.45182833 0.44627088 -0.65844905 0.09432011 0.34970242 -0.84091765 0.39514062 -0.7719156
0.5065932 0.5879814 0.30434 0.0020265204 -0.07096764 -0.4541936 0.2652207 -0.031869624
-1.2036536 0.22113264 -0.85815376 0.1677814 0.10742094 -0.4815033 0.17221558 0.26174998
-0.62770474 -0.013112494 -0.17470753 -0.044414993 0.43624982 -0.0022252908 -0.4017775 -0.042174548
-0.02251765 0.46563217 0.44004825 0.016093709 0.52973765 0.17344366 -0.34741753 0.5397451
0.021899866 0.599344 0.40020165 0.48069504 -0.23367724 -0.051462494 0.3553504 -0.2966991
0.41089448 0.19513157 0.1082125 0.026283497 0.4741648 -0.27312633 -0.031178473 0.4809693
0.13474321 -0.4037544 0.5031473 0.4325736 0.22182882 0.14403279 0.3114829 -0.09612139
0.29040512 0.17656997 0.48920882 -0.27832884 -0.50160956 -0.079375155 -0.53541094 0.15842342
-0.3490651 -0.019218303 -0.47013617 0.05098629 -0.22899391 0.050959095 -0.04258133 -0.49189347
00000000: 1a71 493e cd31 1bbd 030b 4ebd 9b94 783e
00000010: 041b f4bd f022 de3e ea12 88be 8d3a f3bd
00000020: 26db e6be af95 3bbf c174 f6be f899 62be
00000030: a3ed 303e 8127 07bf a06e f93e 8811 16bf
00000040: 0c64 bb3e 043d babd 5776 11bf de8f a3be
00000050: 73ad 3bbf b0ea e1bd f6e4 cbbe 2d74 e23d
00000060: b72c 61be f02e 2e3e f7ce a9bc 6d16 8ebe
00000070: f6ec 31be 68b8 47b9 df18 c83e fe6f d3be
00000080: 16f1 c03c 8ffa 2a3d 2d8f 09bd e06b 5b3e
00000090: 2801 b73e ff44 a3bd 6e74 f63e 9d15 ee3d
000000a0: fdfd 6fbd 7fb7 32bf 92c1 14bf 5152 6c3e
000000b0: 5a76 9ebd 1540 1f3d dde7 a33d cca0 e13c
000000c0: 0b56 e7be 9e7d e43e 1e90 28bf e72a c13d
000000d0: 320c b33e 6146 57bf df4f ca3e 439c 45bf
000000e0: 18b0 013f f385 163f 74d2 9b3e 5fcf 043b
000000f0: 7b57 91bd 108c e8be 02cb 873e b989 02bd
00000100: 5211 9abf 9870 623e f7af 5bbf e3ce 2b3e
00000110: 83ff db3d 9a87 f6be 4859 303e 1804 863e
00000120: 42b1 20bf c9d5 56bc 88e6 32be 7fec 35bd
00000130: 235c df3e 2fd6 11bb c8b5 cdbe 38bf 2cbd
00000140: ef76 b8bc 5767 ee3e 014e e13e f4d6 833c
00000150: e39c 073f 379b 313e b6e0 b1be bc2c 0a3f
00000160: 5967 b33c 9c6e 193f 3be7 cc3e a91d f63e
00000170: 1649 6fbe 56ca 52bd 7df0 b53e f2e8 97be
00000180: c360 d23e 92d0 473e 849e dd3d 7d50 d73c
00000190: bbc5 f23e 37d7 8bbe ff69 ffbc 9c41 f63e
000001a0: 20fa 093e e6b8 cebe 43ce 003f 497a dd3e
000001b0: 1827 633e 557d 133e b07a 9f3e 4bdb c4bd
000001c0: fbaf 943e c2ce 343e 9479 fa3e 1e81 8ebe
000001d0: 7c69 00bf 718f a2bd b110 09bf c039 223e
000001e0: a9b8 b2be b46f 9dbc b0b5 f0be 00d7 503d
000001f0: 617d 6abe 7cba 503d c369 2ebd 76d9 fbbe

fc_mu.weight f4 [1, 128]
0.009829848 0.3355832 -0.6823832 0.01882371 0.93450844 -0.08240392 0.116140835 -0.11860371
0.82873523 0.018099256 -0.5964424 -0.18205571 -0.011854637 0.36304358 -0.07551103 -0.7878056
-0.06840413 -0.21214868 -0.0145100355 0.32037994 0.14786926 0.017647734 -0.4466438 0.30438727
-0.07397019 -0.0026931968 -0.28939128 -0.35906267 0.14122532 0.57983124 -0.072984956 -0.10061421
-0.08100635 0.3392761 -0.33366206 0.04986835 0.22275862 -0.33441928 -0.08922666 0.17076036
0.1182659 0.78909343 0.50172234 0.18228208 0.21432689 -0.32239586 -0.63577324 0.1811155
-0.12855354 0.40246293 0.45891917 -0.2835577 -0.027092611 0.57717186 -0.24979362 0.621261
-0.03428149 -0.113540925 -0.029102521 -0.19152369 0.042009264 0.7428711 0.0026184525 0.1737982
0.09850585 0.19519764 0.02201805 0.46306506 0.5747441 -1.6030792 0.29341897 0.16028772
0.7654348 -0.045559485 -0.25789604 -0.63046354 -0.044169027 0.22241962 0.9379282 0.13957068
-0.0530402 -0.198764 0.07274908 0.3786692 -0.39548376 0.0019889944 0.10994985 0.19809675
0.08064035 -0.09635138 0.067806296 0.12868813 0.17891602 -0.14002584 -0.11601859 -0.6210251
-0.05330655 0.15307195 -0.0061934004 0.046930216 0.020822028 0.28517786 0.21596862 -0.062399838
0.45855284 0.84805673 -0.31995207 0.07272284 -0.18551178 0.5361008 0.123811916 0.7459767
0.343875 -0.21824831 -0.09961588 -0.6005248 0.11491419 -0.3605211 -2.020747 0.2864838
-0.021909714 0.4388766 0.17954975 0.2756356 -0.18172796 0.18068667 -0.22293913 0.4218669
00000000: 5f0d 213c 90d1 ab3e aab0 2ebf 2e34 9a3c
00000010: f23b 6f3f 63c3 a8bd 3fdb ed3d 80e6 f2bd
00000020: fe27 543f e444 943c 73b0 18bf d06c 3abe
00000030: f439 42bc d9e0 b93e 87a5 9abd a1ad 49bf
00000040: 7717 8cbd 813d 59be 80bb 6dbc d708 a43e
00000050: 0a6b 173e fb91 903c 7fae e4be a6d8 9b3e
00000060: af7d 97bd 5880 30bb 182b 94be 10d7 b7be
00000070: 5f9d 103e d26f 143f 2379 95bd d30e cebd
00000080: a8e6 a5bd 99b5 ad3e c1d5 aabe c142 4c3d
00000090: d61a 643e 0139 abbe 78bc b6bd cedb 2e3e
000000a0: 6435 f23d 0702 4a3f e070 003f 27a8 3a3e
000000b0: 8278 5b3e 1211 a5be 09c2 22bf 5776 393e
000000c0: 8aa3 03be 9f0f ce3e 74f7 ea3e 7a2e 91be
000000d0: 53f1 ddbc 89c1 133f e6c9 7fbe f60a 1f3f
000000e0: bf6a 0cbd 2588 e8bd 6968 eebc c91e 44be
000000f0: e811 2c3d cd2c 3e3f 589a 2b3b 28f8 313e
00000100: 6fbd c93d e4e1 473e 335f b43c dd16 ed3e
00000110: 6e22 133f b331 cdbf 033b 963e 7722 243e
00000120: 89f3 433f 959c 3abd f30a 84be 0f66 21bf
00000130: 95ea 34bd f8c1 633e 101c 703f 9eeb 0e3e
00000140: ae40 59bd ca88 4bbe 78fd 943d eee0 c13e
00000150: d97c cabe ca59 023b 632d e13d e0d9 4a3e
00000160: c526 a53d df53 c5bd 07de 8a3d d2c6 033e
00000170: c335 373e ef62 0fbe 289b edbd 80fb 1ebf
00000180: f857 5abd e5be 1c3e 02f2 cabb e639 403d
00000190: f592 aa3c d502 923e e126 5d3e f996 7fbd
000001a0: 70c7 ea3e 3f1a 593f c2d0 a3be b6ef 943d
000001b0: cdf6 3dbe e73d 093f 1a91 fd3d 54f8 3e3f
000001c0: 6210 b03e 7c7c 5fbe 6903 ccbd febb 19bf
000001d0: 2158 eb3d 3996 b8be eb53 01c0 01ae 923e
000001e0: 007c b3bc 6fb4 e03e e4db 373e 1c20 8d3e
000001f0: e516 3abe ed05 393e 284a 64be f0fe d73e

fc_std.weight f4 [1, 128]
0.017601345 0.056478135 0.006518347 0.06824229 -0.0071644266 -0.06839039 0.046553764 0.033232495
-0.080878586 0.018780973 -0.078375906 -0.052556887 0.010086636 -0.025300257 0.03181694 -0.040916298
-0.033555295 -0.06791541 0.021976357 0.015844086 0.019774143 0.03240495 0.031976603 -0.0021087439
0.07449986 0.010342489 0.020738842 0.085414 -0.02868724 -0.08403111 -0.081304125 0.08405333
0.028233415 0.044226743 -0.061671913 0.052729256 -0.08321798 0.08224575 -0.015580415 -0.032056797
0.008951085 -0.026535181 0.047999255 -0.0103213 -0.065165214 -0.035620105 -0.07236894 0.05186906
-0.04777299 -0.07654281 -0.07358839 0.050270356 0.0375067 0.028726522 -0.047424812 0.016250644
0.07965338 0.03973922 -0.020063944 -0.08356093 -0.017557407 -0.07576381 0.042384863 0.044493835
0.049907926 -0.07362336 0.07104239 0.019384304 0.086463004 0.052527584 0.030030357 0.06868243
-0.006444021 0.008708077 0.0060277265 0.04045087 0.07195865 -0.05688405 0.02663919 -0.027510902
-0.0071183075 -0.053789366 0.08427599 0.022636345 0.017156085 0.07676062 0.047518317 0.046361912
-0.011135281 -0.04481427 0.03893141 0.061815716 -0.05609419 -0.00010413433 0.008929959 0.007981054
-0.0137705235 0.04583338 0.06446959 0.08053618 0.033444315 -0.04658762 0.05368218 -0.055348366
-0.017392687 0.08668037 -0.06810119 0.036626287 -0.081689745 0.018479707 0.07560801 -0.06723007
-0.075694315 -0.0072534094 -0.0400826 -0.048872124 -0.042498827 0.0047483062 -0.06686626 -0.031046232
-0.0036064847 0.03781232 0.084723994 0.014684077 -0.002386028 0.07103948 0.04688078 -0.043966908
00000000: b230 903c 9e55 673d dc97 d53b 9dc2 8b3d
00000010: 91c3 eabb 4310 8cbd 29af 3e3d cc1e 083d
00000020: aca3 a5bd 8eda 993c 8c83 a0bd e445 57bd
00000030: 6b42 253c 7c42 cfbc 7b52 023d d997 27bd
00000040: 4771 09bd 3c17 8bbd c307 b43c 75cb 813c
00000050: 62fd a13c 0ebb 043d e6f9 023d da32 0abb
00000060: 6293 983d 8b73 293c 81e4 a93c 89ed ae3d
00000070: 8101 ebbc 8118 acbd c782 a6bd 2724 ac3d
00000080: c349 e73c 1a27 353d b09b 7cbd a2fa 573d
00000090: 306e aabd 7670 a83d ff44 7fbc fd4d 03bd
000000a0: 92a7 123c 4f60 d9bc de9a 443d ab1a 29bc
000000b0: 5775 85bd 63e6 11bd 2b36 94bd a774 543d
000000c0: 9cad 43bd 7ac2 9cbd 83b5 96bd 4ae8 4d3d
000000d0: a0a0 193d e253 eb3c 8540 42bd 1220 853c
000000e0: 5021 a33d 98c5 223d 245d a4bc fe21 abbd
000000f0: 8dd4 8fbc 0e2a 9bbd c09b 2d3d 2b3f 363d
00000100: 416c 4c3d d8c7 96bd ac7e 913d d5cb 9e3c
00000110: 8413 b13d 2a27 573d 3902 f63c 60a9 8c3d
00000120: 5e28 d3bb 52ac 0e3c 3c84 c53b d0af 253d
00000130: 0f5f 933d 40ff 68bd 6e3a da3c 8b5e e1bc
00000140: b140 e9bb 3d52 5cbd e498 ac3d db6f b93c
00000150: eb8a 8c3c ac34 9d3d 91a2 423d fde5 3d3d
00000160: c170 36bc 2b8f 37bd 8b76 1f3d 7a32 7d3d
00000170: 05c3 65bd b162 dab8 f64e 123c f7c2 023c
00000180: c39d 61bc c8bb 3b3d a208 843d 27f0 a43d
00000190: e8fc 083d a9d2 3ebd d8e1 5b3d f8b4 62bd
000001a0: 1c7b 8ebc 7a85 b13d a378 8bbd 7205 163d
000001b0: f44c a7bd c162 973c 5fd8 9a3d ebaf 89bd
000001c0: 9f05 9bbd 02ae edbb a72d 24bd 232e 48bd
000001d0: 4013 2ebd ae97 9b3b 2df1 88bd ab54 febc
000001e0: c65a 6cbb 17e1 1a3d c683 ad3d 7c95 703c
000001f0: e85e 1cbb 267d 913d 1006 403d a516 34bd
